FarmerFriendApp/app/src/main/assets/model.tflite (tflite, 244376 bytes, 24 tensors)

batch_normalization/FusedBatchNorm_add_param f4 [16]
0.029090364 -0.43510526 -2.574436 -1.4556987 0.00400379 -2.044495 -1.9358022 -2.4212468
-2.5907018 -0.049876425 0.01586403 -0.95992863 -1.3881234 -1.7014866 0.059961285 0.0078631425
00000000: ea4e ee3c 1ec6 debe 8fc3 24c0 5654 babf
00000010: 3a32 833b 02d9 02c0 5ec8 f7bf b5f5 1ac0
00000020: 0fce 25c0 394b 4cbd 48f5 813c e2bd 75bf
00000030: 07ae b1bf 50ca d9bf f799 753d 69d4 003c

batch_normalization/FusedBatchNorm_mul_0_param f4 [16]
31.98166 25.847532 7.2634234 11.2251005 31.821346 11.587748 10.733083 11.053983
10.8011875 31.345032 31.924206 19.48183 13.431165 6.0170794 32.239544 33.020756
00000000: 71da ff41 bfc7 ce41 f76d e840 039a 3341
00000010: 1e92 fe41 6a67 3941 b5ba 2b41 1ddd 3041
00000020: aad1 2c41 a0c2 fa41 c664 ff41 cada 9b41
00000030: 0de6 5641 ea8b c040 4bf5 0042 4115 0442

batch_normalization_1/FusedBatchNorm_add_param f4 [32]
-0.68715864 -0.70926094 -0.5722543 -0.55970764 -0.42555124 -0.49055156 -0.41878563 -0.9381682
-0.76538175 -0.7815277 -0.78831804 -0.6210017 -0.36265126 -0.54158056 -0.5824958 -0.74052775
-0.5983738 -0.49383438 -0.46000212 -0.7449876 -0.5851375 -0.51526785 -0.8472405 -0.724344
-0.5982776 -0.70648175 -0.6971129 -0.47524408 -0.4211427 -0.6063812 -0.69666755 -0.82886297
00000000: a1e9 2fbf 2092 35bf 427f 12bf 0049 0fbf
00000010: dae1 d9be 9329 fbbe 126b d6be cb2b 70bf
00000020: 0ff0 43bf 3312 48bf 36cf 49bf f8f9 1ebf
00000030: 6dad b9be 06a5 0abf 721e 15bf 3a93 3dbf
00000040: 062f 19bf dcd7 fcbe 6685 ebbe 82b7 3ebf
00000050: 92cb 15bf 98e8 03bf c1e4 58bf 9c6e 39bf
00000060: b928 19bf fddb 34bf fe75 32bf 3153 f3be
00000070: 04a0 d7be cc3b 1bbf ce58 32bf 5d30 54bf

batch_normalization_1/FusedBatchNorm_mul_0_param f4 [32]
2.7360563 1.2787217 1.2672741 2.4777544 6.4181204 4.232373 4.0425844 2.4788706
2.7354796 0.98997307 1.3968323 2.420961 4.8825927 4.3124 1.8279881 2.363482
1.8168062 3.6966999 3.1470716 1.0264319 2.9694033 2.4656966 1.1252124 3.0595405
2.8781953 1.6310227 4.02177 2.9354014 6.1400213 3.5589988 1.7903824 1.4077184
00000000: 8c1b 2f40 27ad a33f 0a36 a23f 8793 1e40
00000010: 3e61 cd40 9a6f 8740 da5c 8140 d1a5 1e40
00000020: 1912 2f40 e06e 7d3f 67cb b23f 06f1 1a40
00000030: 333e 9c40 2eff 8940 84fb e93f 4a43 1740
00000040: 1b8d e83f bb96 6c40 9f69 4940 1f62 833f
00000050: b40a 3e40 f9cd 1d40 f606 903f 83cf 4340
00000060: 5a34 3840 5ac5 d03f 57b2 8040 9edd 3b40
00000070: 0e7b c440 a3c6 6340 402b e53f 1e30 b43f

batch_normalization_2/FusedBatchNorm_add_param f4 [64]
-0.8181462 -0.6906809 -0.7509608 -0.5524405 -0.6535839 -0.47531244 -0.9343319 -0.43186444
-0.5702856 -0.6357467 -0.7563018 -0.58698 -0.68552434 -0.57852006 -0.3413906 -0.49732777
-0.8181842 -0.567803 -0.53199506 -0.6534518 -0.46091282 -0.5250171 -0.7765247 -0.52121526
-0.6402043 -0.49772295 -0.63300604 -0.71482843 -0.47480935 -0.5793805 -0.39856005 -0.4762749
-0.5718159 -0.72840786 -0.51374125 -0.7559457 -0.65367585 -0.5318651 -0.5775637 -0.47417232
-0.5325774 -0.5528647 -0.6446905 -0.53297776 -0.625305 -0.6656692 -0.7751344 -0.62243956
-0.8312678 -0.5639368 -0.6577346 -0.6538496 -0.6046769 -0.41736218 -0.6765117 -0.65916157
-0.53344417 -0.4254955 -0.5717495 -0.87877864 -0.6170896 -0.5680114 -0.61828053 -0.5717242
00000000: 0872 51bf 77d0 30bf f83e 40bf be6c 0dbf
00000010: 4651 27bf 275c f3be 6030 6fbf 561d ddbe
00000020: 3dfe 11bf 4cc0 22bf ff9c 41bf 5244 16bf
00000030: 867e 2fbf e419 14bf c0ca aebe bfa1 febe
00000040: 8574 51bf 8a5b 11bf d430 08bf 9e48 27bf
00000050: c4fc ebbe 8567 06bf 53ca 46bf 5d6e 05bf
00000060: 6ee4 23bf 8bd5 febe af0c 22bf fffe 36bf
00000070: 361a f3be 4852 14bf 1010 ccbe 4eda f3be
00000080: 8762 12bf f078 3abf 8c84 03bf a885 41bf
00000090: 4d57 27bf 5028 08bf 37db 13bf b7c6 f2be
000000a0: fe56 08bf 8a88 0dbf 700a 25bf 3b71 08bf
000000b0: fd13 20bf 4c69 2abf 356f 46bf 3358 1fbf
000000c0: f7cd 54bf 2a5e 10bf 4b61 28bf b062 27bf
000000d0: 1bcc 1abf 7fb0 d5be df2f 2dbf d0be 28bf
000000e0: cc8f 08bf 8cda d9be 2d5e 12bf a3f7 60bf
000000f0: 96f9 1dbf 3269 11bf a247 1ebf 845c 12bf

batch_normalization_2/FusedBatchNorm_mul_0_param f4 [64]
0.7280169 1.2716627 1.0421139 1.4177752 0.7914225 2.3139746 0.48002338 1.9335481
0.96474975 0.75929713 0.7686204 1.1870111 0.96051013 1.2424302 2.6694598 1.5871588
0.9544078 0.65859485 1.5438094 0.45427564 1.4386824 0.6771737 0.6749375 1.823357
0.8270276 1.9764867 0.8887219 0.90358835 1.5621057 1.477975 1.4156077 1.8993218
1.1607141 0.48441476 1.1732467 0.78089267 0.41247904 0.9081725 1.481397 0.9929311
1.1655796 1.7018476 0.9402311 1.1723547 1.3580565 0.9296409 0.65231365 1.4492639
0.69583327 0.7314953 0.7185539 1.2671226 1.4285842 1.0907934 0.7829252 1.0508971
0.69051486 2.380229 1.6300944 0.7376289 1.0291147 0.97452044 0.68856114 0.50012225
00000000: 515f 3a3f d8c5 a23f fd63 853f a879 b53f
00000010: aa9a 4a3f 2918 1440 a0c5 f53e 817e f73f
00000020: d7f9 763f 4c61 423f 4ec4 443f fbef 973f
00000030: fee3 753f f407 9f3f 6ed8 2a40 0528 cb3f
00000040: 1254 743f ac99 283f 8c9b c53f d196 e83e
00000050: bf26 b83f 415b 2d3f b4c8 2c3f c363 e93f
00000060: 15b8 533f 84fd fc3f 4783 633f 9151 673f
00000070: 14f3 c73f 492e bd3f a232 b53f fa1c f33f
00000080: 4892 943f 3605 f83e f32c 963f 95e8 473f
00000090: 7430 d33e fe7d 683f 6b9e bd3f bc30 7e3f
000000a0: b631 953f 24d6 d93f fcb2 703f b80f 963f
000000b0: ccd4 ad3f f2fc 6d3f 07fe 263f 7b81 b93f
000000c0: 2122 323f 4743 3b3f 26f3 373f 1331 a23f
000000d0: d9db b63f 1e9f 8b3f c96d 483f cc83 863f
000000e0: 95c5 303f ac55 1840 efa6 d03f 3fd5 3c3f
000000f0: 08ba 833f 2c7a 793f 8b45 303f 0308 003f

batch_normalization_3/FusedBatchNorm_add_param f4 [64]
-0.6313939 -0.4084528 -0.53590643 -0.82971567 -0.54227966 -0.8857184 -0.44309276 -0.7246049
-0.66852933 -0.66572917 -0.53871673 -0.6084795 -0.78037167 -0.7544804 -0.42185467 -0.6515217
-0.50892186 -0.8908856 -0.59448856 -0.7001719 -0.59582084 -0.7742735 -0.5285131 -0.28449753
-0.63179463 -0.6409121 -0.35322046 -0.41824207 -0.5696023 -0.32831332 -0.41872257 -0.36848447
-0.6963145 -0.30795783 -0.6949836 -0.4733898 -0.5897432 -0.45336047 -0.5864133 -0.49993175
-0.4091343 -0.4772794 -0.38312027 -0.36945632 -0.57697964 -0.59852463 -0.6721635 -0.511935
-0.5470185 -0.85903096 -0.87830245 -0.7322312 -0.88105106 -0.47740003 -0.62030107 -0.9703523
-0.58776104 -0.5726376 -0.5617187 -0.78881437 -0.6928838 -0.46027744 -0.684754 -0.5269082
00000000: 08a3 21bf ba20 d1be 2a31 09bf 3f68 54bf
00000010: d7d2 0abf 71be 62bf 0edd e2be b57f 39bf
00000020: bd24 2bbf 3a6d 2abf 57e9 09bf 50c5 1bbf
00000030: 70c6 47bf a125 41bf 56fd d7be 20ca 26bf
00000040: b448 02bf 1411 64bf 6730 18bf 773e 33bf
00000050: b787 18bf ca36 46bf a24c 07bf a9a9 91be
00000060: 4bbd 21bf d112 24bf 50d9 b4be d323 d6be
00000070: 75d1 11bf af18 a8be ce62 d6be ffa9 bcbe
00000080: ab41 32bf a6ac 9dbe 72ea 31bf 2660 f2be
00000090: 69f9 16bf dd1e e8be 2f1f 16bf 0ef7 ffbe
000000a0: 0d7a d1be f75d f4be 5728 c4be 6129 bdbe
000000b0: f0b4 13bf e938 19bf e812 2cbf 2c0e 03bf
000000c0: 6809 0cbf 74e9 5bbf 6ed8 60bf 8173 3bbf
000000d0: 908c 61bf c76d f4be 0dcc 1ebf 0269 78bf
000000e0: 8277 16bf 6198 12bf cccc 0fbf bdef 49bf
000000f0: d560 31bf 7ca9 ebbe 0a4c 2fbf 75e3 06bf

batch_normalization_3/FusedBatchNorm_mul_0_param f4 [64]
0.6729705 0.95249546 0.7732158 0.5046858 0.673724 0.49044853 0.6679848 0.6288956
0.70777184 0.6803442 0.6743665 0.80013186 0.70538527 0.6011478 0.5452164 0.68404907
0.9847564 0.5284886 0.6008564 0.7081018 0.70563793 0.40904567 0.87576 0.6895648
0.5448773 0.44155666 0.9055618 0.84216034 0.8641477 0.54876596 0.7854015 0.5757358
0.38564494 1.2596823 0.337317 0.7513468 0.63627034 0.95434684 0.7239732 0.89273953
0.6262436 0.77384883 0.654261 0.90759796 0.6967156 0.78164536 0.68467146 0.7502313
1.185451 0.59458303 0.6707705 0.4922393 0.3434812 0.5055049 0.8844925 0.3876093
0.65696 1.0881512 0.61269194 0.44991994 0.60328865 1.1518569 0.69620043 0.51806486
00000000: cb47 2c3f bed6 733f 78f1 453f 1733 013f
00000010: 2d79 2c3f 121c fb3e 0d01 2b3f 4dff 203f
00000020: 8930 353f 0a2b 2e3f 48a3 2c3f 71d5 4c3f
00000030: 2194 343f d2e4 193f 4d93 0b3f d71d 2f3f
00000040: ff18 7c3f 074b 073f bad1 193f 2946 353f
00000050: b0a4 343f 6f6e d13e cf31 603f 5287 303f
00000060: 147d 0b3f b713 e23e e6d2 673f d297 573f
00000070: c938 5d3f ed7b 0c3f 1310 493f 6c63 133f
00000080: 4173 c53e 453d a13f d0b4 ac3e 4458 403f
00000090: 9de2 223f 1350 743f 4f56 393f 948a 643f
000000a0: 8051 203f f51a 463f a67d 273f 5758 683f
000000b0: f45b 323f e919 483f a146 2f3f 290f 403f
000000c0: dcbc 973f 9836 183f 9eb7 2b3f ca06 fc3e
000000d0: c5dc af3e c568 013f 1a6e 623f ba74 c63e
000000e0: 882e 283f 8a48 8b3f 61d9 1c3f e85b e63e
000000f0: 2071 1a3f 0c70 933f 313a 323f e69f 043f

batch_normalization_4/FusedBatchNorm_add_param f4 [64]
-0.5809677 -0.65372354 -0.65481615 -0.80364233 -0.6426295 -0.40957588 -0.48043865 -0.42588738
-0.59937227 -0.59099424 -0.7952809 -0.41756892 -0.6411466 -0.77764416 -0.58949316 -0.6680989
-0.6841715 -0.7536937 -0.7637632 -0.5854597 -0.68772423 -0.6198948 -0.5650878 -0.58909
-0.5187058 -0.59499526 -0.66538256 -0.7507577 -0.93998545 -0.9658444 -0.6022726 -0.6166625
-0.71288306 -0.56261265 -0.7337332 -0.72369015 -0.4731114 -0.614366 -0.8351194 -0.6633814
-0.61429286 -1.1009024 -0.788702 -0.8786468 -0.87023306 -0.81750494 -0.6729553 -0.5509029
-0.56831634 -0.43875873 -0.5438819 -0.40320182 -0.6190219 -0.7247454 -0.73953176 -0.9377478
-0.92328644 -0.73247004 -0.84251535 -1.2445588 -0.57763344 -0.9077823 -0.8670569 -0.649908
00000000: 4dba 14bf 6d5a 27bf 08a2 27bf 81bb 4dbf
00000010: 5e83 24bf eeb3 d1be 0efc f5be e90d dabe
00000020: 7670 19bf 664b 17bf 8797 4bbf 98cb d5be
00000030: 2f22 24bf b013 47bf 06e9 16bf 8808 2bbf
00000040: dd25 2fbf 12f2 40bf fc85 43bf b0e0 15bf
00000050: b20e 30bf 6db1 1ebf 98a9 10bf 9ace 16bf
00000060: e7c9 04bf 9c51 18bf 8356 2abf a831 40bf
00000070: e3a2 70bf 9441 77bf 8a2e 1abf 98dd 1dbf
00000080: 817f 36bf 6207 10bf f0d5 3bbf c243 39bf
00000090: a83b f2be 1747 1dbf 63ca 55bf 5dd3 29bf
000000a0: 4c42 1dbf 5fea 8cbf 60e8 49bf ffee 60bf
000000b0: 98c7 5ebf 0148 51bf cc46 2cbf f907 0dbf
000000c0: 2e7d 11bf fca4 e0be d83b 0bbf 7870 cebe
000000d0: 3878 1ebf ea88 39bf f451 3dbf 3d10 70bf
000000e0: 805c 6cbf 2883 3bbf 16af 57bf b44d 9fbf
000000f0: c9df 13bf 6c64 68bf 71f7 5dbf 5f60 26bf

batch_normalization_4/FusedBatchNorm_mul_0_param f4 [64]
1.2395154 0.88661236 1.2232727 0.70925516 0.687473 1.1151859 1.4552686 1.8456054
0.93854254 1.1165128 0.8449265 1.3419688 1.137169 0.90998447 1.0121822 0.72692126
0.9541288 1.0165211 1.0086533 1.0945938 0.9997607 1.0221744 1.188586 1.0653086
0.9333704 1.2408357 0.76835895 1.0707324 0.82785296 0.65540195 1.3577476 1.332536
0.7160941 0.951051 0.8401834 1.0320379 1.3247313 1.1366996 0.59049445 1.0242646
0.85048133 0.58678615 0.8299097 0.6320547 0.75020534 0.81764513 1.155129 1.3820176
0.92682827 1.218438 1.2930361 0.9983785 1.1694372 1.0719857 1.0042324 0.5022279
0.77230257 1.1100814 1.0137496 0.53610176 1.0395433 0.7130351 0.8270556 1.2815112
00000000: 71a8 9e3f 07f9 623f 3394 9c3f bf91 353f
00000010: 3bfe 2f3f 69be 8e3f 3e46 ba3f cc3c ec3f
00000020: 5344 703f e4e9 8e3f 1a4d 583f a2c5 ab3f
00000030: c18e 913f bef4 683f 308f 813f 8317 3a3f
00000040: c941 743f 5d1d 823f 8d1b 813f a61b 8c3f
00000050: 51f0 7f3f 9cd6 823f 9623 983f 085c 883f
00000060: 5df1 6e3f b4d3 9e3f 2cb3 443f c20d 893f
00000070: 2cee 533f 6cc8 273f acca ad3f 8a90 aa3f
00000080: f151 373f 1478 733f 4216 573f d119 843f
00000090: cc90 a93f 5f7f 913f a52a 173f 1a1b 833f
000000a0: 25b9 593f 9e37 163f f674 543f 56ce 213f
000000b0: 750d 403f 3151 513f 44db 933f f4e5 b03f
000000c0: 9e44 6d3f c7f5 9b3f 3582 a53f bc95 7f3f
000000d0: 1eb0 953f d436 893f b08a 803f 0292 003f
000000e0: 9fb5 453f 2617 8e3f 8cc2 813f f73d 093f
000000f0: c10f 853f 7889 363f eab9 533f 8f08 a43f

conv2d/Conv2D_bias f4 [16]
0.013260229 -0.0030071745 0.010467887 0.039906196 0.0055887094 0.052718043 -0.02420634 0.00394393
0.04921501 0.035573807 0.053721208 0.055880427 0.06534586 0.007773922 -0.003806953 0.003965084
00000000: 6e41 593c 0414 45bb 8081 2b3c ae74 233d
00000010: 7e21 b73b e0ee 573d 604c c6bc 153c 813b
00000020: ae95 493d d7b5 113d c50a 5c3d e0e2 643d
00000030: 0dd4 853d 62bc fe3b 137e 79bb 89ed 813b

conv2d/kernel f4 [16, 3, 3, 3]
-0.16395974 -0.0030189017 -0.119220614 -0.015985891 -0.16777757 -0.13692285 -0.07641293 0.16733667
0.0181654 0.050418414 0.011993697 0.12478292 -0.013591422 0.102784514 0.060130615 -0.15301903
0.19775496 0.18463047 0.06396888 -0.16328624 -0.107924365 -0.09554035 0.012094254 -0.17479269
-0.10780814 -0.1671488 0.042346906 0.013029432 -0.03304507 0.09218994 0.10902844 -0.108514436
-0.035202917 0.039618134 -0.13232839 -0.057282634 -0.15574473 -0.15345138 0.18244201 0.18704458
-0.21181816 0.16195488 0.11845599 -0.13094574 0.17740136 -0.14125392 -0.055763133 0.13878109
0.18181093 0.075757094 -0.07476994 -0.09162785 -0.06413955 -0.008904341 -0.08518826 0.093452126
0.13539705 0.20627803 -0.11158621 -0.17594717 -0.09342269 0.058267947 -0.057938278 0.10186396
0.052460626 0.16027297 0.21793583 0.08317697 0.03064895 -0.024291122 0.069074415 -0.20543881
0.17318079 0.13651703 -0.17785469 0.060685527 0.14356574 0.10797137 -0.17576802 -0.19389006
0.12091463 -0.123445615 -0.092336595 0.06701789 0.17370966 0.04967843 0.20694569 -0.11661518
-0.056699913 -0.056747623 -0.03263295 -0.05189086 0.122815356 -0.13488513 0.026176095 -0.17558137
0.050250992 -0.051120255 -0.012233302 0.17603113 0.076075844 0.08753408 -0.053766254 -0.14964819
0.030275322 0.15121879 0.031218993 0.11050743 0.07241786 0.015812986 -0.019750766 0.010209185
0.012967884 -0.14857428 -0.14051536 -0.19881101 0.09720342 0.014000089 0.13049318 -0.10972832
0.14414766 0.041009743 -0.10317448 0.18985662 -0.13221891 0.057591707 0.08644492 0.034021217
-0.08276175 -0.11328254 -0.13627446 -0.038334783 0.031139927 0.07035998 -0.14151146 -0.16575472
0.115041554 -0.14228657 0.11551527 -0.0106474515 -0.07298958 -0.047648054 0.06402251 -0.053047087
0.085634075 0.12605579 0.13161297 -0.18204646 0.0025504609 0.13528946 -0.21449597 -0.08710984
0.15228374 0.10482097 -0.06440799 0.09904295 0.046470854 0.12850606 0.086354904 -0.1010041
-0.121233985 0.1683454 -0.08077624 -0.027280157 0.02932851 0.05407168 -0.10980774 0.06866675
0.0018165812 -0.036701154 -0.033047836 0.12027205 -0.08750169 -0.0038259646 0.18848604 0.005235353
-0.04004509 0.09250801 0.08330988 -0.10828926 0.10901923 -0.109276496 0.008649321 0.17891221
0.120160855 -0.14780754 0.13626626 0.040432077 -0.028908238 0.043360334 0.19685811 0.1078149
0.08780843 -0.035848085 -0.1841619 0.026614152 -0.019967673 -0.053208046 -0.19215722 0.06824045
-0.06362468 -0.085514314 0.07047969 -0.13801861 0.103922196 0.13559532 0.14652632 0.033042967
0.18493639 0.08738305 -0.11627222 0.15067975 0.16316508 -0.020978438 -0.13017823 -0.17345075
-0.093116105 0.08861795 0.17284712 0.046083834 0.095718265 -0.08279747 0.04874099 -0.02604428
0.13776836 0.08969074 0.051308196 0.06876419 0.09733663 0.15372732 0.0025671981 0.029507035
0.09816726 0.14716053 -0.22138955 0.09789452 -0.020838687 -0.13177693 0.068622015 -0.14222082
-0.12727797 -0.15318325 -0.08879097 -0.15961261 0.16046914 -0.12727484 -0.1391872 0.07874161
0.09912958 -0.074428305 0.17941742 -0.0123357605 0.0040045935 -0.1022826 0.1062277 0.088750504
00000000: 10e5 27be c4d8 45bb f029 f4bd d8f4 82bc
00000010: e2cd 2bbe 8135 0cbe 627e 9cbd 4e5a 2b3e
00000020: 9bcf 943c 8a83 4e3d 3681 443c 308e ff3d
00000030: 8eae 5ebc b080 d23d 854b 763d 05b1 1cbe
00000040: 4780 4a3e c50f 3d3e 1e02 833d 8234 27be
00000050: 7307 ddbd a9aa c3bd fa26 463c dbfc 32be
00000060: 84ca dcbd 0e29 2bbe f373 2d3d 6679 553c
00000070: 445a 07bd 14ce bc3d 4e4a df3d d13c debd
00000080: ef30 10bd a046 223d 1881 07be 32a1 6abd
00000090: 8c7b 1fbe 5c22 1dbe 14d2 3a3e 9d88 3f3e
000000a0: dce6 58be 80d7 253e 0e99 f23d a416 06be
000000b0: b4a8 353e dea4 10be e267 64bd a11c 0e3e
000000c0: a52c 3a3e 8926 9b3d fb20 99bd 62a7 bbbd
000000d0: 995b 83bd 83e3 11bc 2f77 aebd d463 bf3d
000000e0: 86a5 0a3e 8c3a 533e 5087 e4bd 7f2b 34be
000000f0: 6554 bfbd 5faa 6e3d b050 6dbd 0d9e d03d
00000100: f4e0 563d 991e 243e 922a 5f3e b058 aa3d
00000110: 8213 fb3c 2dfe c6bc e376 8d3d 8d5e 52be
00000120: 4e56 313e 1fcb 0b3e 8a1f 36be 6391 783d
00000130: e602 133e 1820 dd3d 88fc 33be 1e8b 46be
00000140: 17a2 f73d 0ed1 fcbd f81a bdbd ad40 893d
00000150: f2e0 313e 9c7b 4b3d 92e9 533e f1d3 eebd
00000160: 2b3e 68bd 3270 68bd 21aa 05bd 838b 54bd
00000170: 9e86 fb3d 541f 0abe 406f d63c 9acb 33be
00000180: fcd3 4d3d 7963 51bd 306e 48bc 8141 343e
00000190: a7cd 9b3d 1145 b33d 013a 5cbd 603d 19be
000001a0: f403 f83c 19d9 1a3e f9be ff3c b851 e23d
000001b0: d14f 943d 3c8a 813c 5ccc a1bc 6d44 273c
000001c0: 3f77 543c db23 18be 42e3 0fbe 1d95 4bbe
000001d0: 9612 c73d a160 653c 01a0 053e 3eb9 e0bd
000001e0: 729b 133e d5f9 273d 244d d3bd c669 423e
000001f0: 6564 07be 48e5 6b3d 090a b13d d559 0b3d
00000200: fe7e a9bd ad00 e8bd 888b 0bbe ef04 1dbd
00000210: 2919 ff3c e518 903d 61e8 10be 9bbb 29be
00000220: e89a eb3d 92b3 11be 4593 ec3d a672 2ebc
00000230: 907b 95bd 9b2a 43bd 3c1e 833d e747 59bd
00000240: eb60 af3d c514 013e 8dc5 063e 636a 3abe
00000250: a225 273b 5289 0a3e d5a4 5bbe a566 b2bd
00000260: 45f0 1b3e 60ac d63d 56e8 83bd 08d7 ca3d
00000270: 3958 3e3d 1897 033e d7da b03d 3ddb cebd
00000280: 8649 f8bd bd62 2c3e 036e a5bd a37a dfbc
00000290: 5842 f03c 447a 5d3d e1e2 e0bd 27a1 8c3d
000002a0: 5a1a ee3a f353 16bd 2b5d 07bd 3151 f63d
000002b0: 1634 b3bd 09bd 7abb 7c02 413e 538d ab3b
000002c0: 5206 24bd d774 bd3d 5f9e aa3d c2c6 ddbd
000002d0: 7945 df3d 5bcc dfbd e2b5 0d3c c334 373e
000002e0: e516 f63d dc5a 17be 6289 0b3e 1b9c 253d
000002f0: f8d0 ecbc 9b9a 313d 2c95 493e 0fce dc3d
00000300: e8d4 b33d 71d5 12bd f094 3cbe ec05 da3c
00000310: 3f93 a3bc aef0 59bd ddc4 44be a6c1 8b3d
00000320: a84d 82bd 2122 afbd a857 903d c054 0dbe
00000330: 29d5 d43d 80d9 0a3e ff0a 163e 1058 073d
00000340: f75f 3d3e e2f5 b23d 2120 eebd cb4b 1a3e
00000350: bf14 273e f9da abbc 714d 05be 139d 31be
00000360: a8b3 bebd 547d b53d d6fe 303e 67c2 3c3d
00000370: f007 c43d b891 a9bd a2a4 473d d05a d5bc
00000380: 2613 0d3e c7af b73d 8b28 523d 3dd4 8c3d
00000390: 6d58 c73d b26a 1d3e 703e 283b bdb8 f13c
000003a0: eb0b c93d 40b1 163e f1b3 62be ec7c c83d
000003b0: e5b5 aabc 88f0 06be b389 8c3d 56a2 11be
000003c0: 2855 02be 12dc 1cbe 0ad8 b5bd 7d71 23be
000003d0: 0652 243e 5654 02be 1787 0ebe 4843 a13d
000003e0: 7304 cb3d de6d 98bd 33b9 373e ee1b 4abc
000003f0: f738 833b 8a79 d1bd e98d d93d d3c2 b53d

conv2d_1/Conv2D_bias f4 [32]
-0.08885533 -0.077655435 -0.0101334145 -0.0135163115 -0.052177206 -0.02273122 -0.006559664 0.031356648
-0.032798257 -0.059591495 0.00542359 0.0095307 0.019616961 0.031389154 -0.12573238 0.036086354
-0.024645967 -0.056117814 -0.02882596 -0.03124638 0.04512774 0.004826827 0.0062209303 0.013200476
-0.015698042 0.040315926 0.01417028 -0.028800711 0.002907369 -0.062108714 -0.059246387 -0.044280715
00000000: c9f9 b5bd d009 9fbd 9f06 26bc 8573 5dbc
00000010: c4b7 55bd d336 babc 73f2 d6bb d46f 003d
00000020: 7757 06bd 3616 74bd 5fb8 b13b a726 1c3c
00000030: c0b3 a03c ea91 003d fdbf 00be 49cf 133d
00000040: 57e6 c9bc cbdb 65bd 6b24 ecbc 69f8 ffbc
00000050: ddd7 383d 5c2a 9e3b f2d8 cb3b cf46 583c
00000060: 2e99 80bc 5022 253d 762a 683c 78ef ebbc
00000070: 8f89 3e3b b565 7ebd 57ac 72bd b25f 35bd

conv2d_1/kernel i1 [32, 3, 3, 16] scale=0.0018422073 zero_point=0
0.057108425 -0.07368829 -0.105005816 -0.10316361 -0.13079672 -0.022106487 -0.1013214 0.11605906
0.04052856 0.1529032 0.018422073 0.009211036 -0.09947919 0.0755305 -0.13816555 -0.151061
-0.08842595 0.009211036 -0.119743474 0.06079284 0.0 -0.04052856 -0.09763698 -0.005526622
0.0018422073 -0.029475316 0.09763698 0.06447726 -0.092110366 -0.035001937 -0.119743474 -0.1271123
-0.029475316 -0.012895451 -0.070003875 0.012895451 -0.016579866 0.07368829 -0.07184608 -0.06079284
-0.093952574 0.0036844146 -0.07184608 0.04052856 0.04052856 -0.11605906 0.0018422073 0.1271123
0.023948696 -0.02026428 -0.093952574 0.08842595 -0.09947919 0.09763698 -0.053424012 0.0036844146
0.07368829 0.16395645 0.1013214 -0.0036844146 -0.08474153 -0.011053244 0.08474153 0.007368829
0.0018422073 -0.082899325 0.055266216 -0.06079284 -0.08842595 -0.06263505 -0.042370766 -0.023948696
0.07184608 -0.007368829 0.0755305 -0.12342789 0.018422073 0.07737271 0.007368829 -0.09763698
0.007368829 -0.09763698 -0.014737658 -0.082899325 -0.082899325 -0.105005816 0.09026816 0.049739596
-0.046055183 0.044212975 0.007368829 0.13448113 -0.025790902 -0.018422073 -0.13448113 0.009211036
0.1529032 -0.07368829 0.051581804 0.1013214 -0.066319466 -0.0036844146 0.033159733 -0.08474153
0.038686354 -0.06447726 0.016579866 -0.09763698 -0.070003875 0.058950633 -0.044212975 0.066319466
-0.055266216 -0.027633108 -0.0755305 -0.018422073 -0.0036844146 0.1252701 -0.055266216 0.13632333
0.042370766 -0.053424012 -0.13263893 -0.09763698 -0.11421685 0.046055183 -0.029475316 0.018422073
0.027633108 -0.09947919 -0.046055183 0.06816167 -0.066319466 0.044212975 -0.009211036 0.106848024
0.11053243 0.06263505 -0.014737658 0.09579478 -0.04052856 0.12895451 0.014737658 0.016579866
0.022106487 0.09947919 0.079214916 0.066319466 -0.035001937 -0.014737658 0.07737271 0.08474153
-0.046055183 -0.025790902 0.049739596 0.07184608 -0.025790902 -0.07737271 0.018422073 0.07368829
-0.06263505 0.105005816 0.07737271 0.070003875 -0.053424012 0.049739596 -0.012895451 0.035001937
-0.06079284 0.117901266 -0.007368829 0.009211036 0.011053244 -0.011053244 -0.005526622 -0.012895451
-0.07184608 0.049739596 0.09026816 -0.093952574 -0.06816167 0.053424012 0.014737658 0.046055183
0.012895451 -0.0036844146 0.042370766 0.022106487 -0.027633108 0.117901266 -0.031317525 -0.035001937
-0.06079284 -0.025790902 -0.10869023 -0.092110366 -0.031317525 0.06816167 0.12158568 0.044212975
-0.049739596 0.035001937 -0.022106487 0.005526622 0.012895451 0.1013214 0.09947919 0.14369217
-0.082899325 0.007368829 -0.07737271 -0.079214916 -0.014737658 -0.08842595 -0.053424012 0.06079284
-0.005526622 -0.1013214 0.022106487 0.049739596 0.11605906 -0.0036844146 -0.070003875 -0.04052856
0.057108425 0.070003875 0.005526622 0.12342789 0.06079284 -0.09026816 0.08842595 -0.04789739
-0.11421685 0.093952574 -0.005526622 0.042370766 0.13448113 -0.04789739 0.10316361 -0.09026816
-0.031317525 0.12158568 0.082899325 -0.08658374 -0.16211423 -0.079214916 0.1271123 -0.08105712
0.058950633 0.06816167 0.066319466 -0.08474153 0.029475316 -0.0755305 -0.11237464 0.046055183
00000000: 1fd8 c7c8 b9f4 c93f 1653 0a05 ca29 b5ae
00000010: d005 bf21 00ea cbfd 01f0 3523 ceed bfbb
00000020: f0f9 da07 f728 d9df cd02 d916 16c1 0145
00000030: 0df5 cd30 ca35 e302 2859 37fe d2fa 2e04
00000040: 01d3 1edf d0de e9f3 27fc 29bd 0a2a 04cb
00000050: 04cb f8d3 d3c7 311b e718 0449 f2f6 b705
00000060: 53d8 1c37 dcfe 12d2 15dd 09cb da20 e824
00000070: e2f1 d7f6 fe44 e24a 17e3 b8cb c219 f00a
00000080: 0fca e725 dc18 fb3a 3c22 f834 ea46 0809
00000090: 0c36 2b24 edf8 2a2e e7f2 1b27 f2d6 0a28
000000a0: de39 2a26 e31b f913 df40 fc05 06fa fdf9
000000b0: d91b 31cd db1d 0819 07fe 170c f140 efed
000000c0: dff2 c5ce ef25 4218 e513 f403 0737 364e
000000d0: d304 d6d5 f8d0 e321 fdc9 0c1b 3ffe daea
000000e0: 1f26 0343 21cf 30e6 c233 fd17 49e6 38cf
000000f0: ef42 2dd1 a8d5 45d4 2025 24d2 10d7 c319

conv2d_2/Conv2D_bias f4 [64]
-0.08826465 0.0025375085 -0.0041501094 -0.07477884 -0.05969213 -0.0995829 0.0049360143 -0.007761508
-0.015432708 -0.08944939 -0.078434 -0.062306717 -0.035683393 -0.040316977 -0.060356636 -0.058203556
-0.05313564 -0.090398915 -0.037893638 -0.09725276 -0.036656953 0.031460434 -0.045218267 -0.0842396
-0.0791478 -0.06279394 -0.03693251 -0.037928116 -0.041039277 -0.049366247 -0.054285754 -0.0150934495
-0.061027136 -0.050913006 -0.06719136 -0.017353222 -0.13007472 -0.056692097 -0.062885225 -0.06264191
-0.013324347 -0.017115679 -0.0092614945 0.04690376 -0.085259594 -0.07246478 -0.11869655 -0.0611115
-0.06547561 -0.011214523 -0.049095802 -0.013173249 -0.099837 -0.118272536 -0.06280571 0.08179932
-0.0121990265 -0.08423189 0.007350998 -0.038831778 -0.016390264 -0.07210486 -0.05417531 -0.06428715
00000000: 19c4 b4bd 544c 263b a4fd 87bb a625 99bd
00000010: bc7f 74bd 1ff2 cbbd 4abe a13b 4054 febb
00000020: 78d9 7cbc 3e31 b7bd 01a2 a0bd 5435 7fbd
00000030: c028 12bd 6a23 25bd 8538 77bd da66 6ebd
00000040: c2a4 59bd 1123 b9bd 5c36 1bbd 742c c7bd
00000050: 9a25 16bd a8dc 003d ca36 39bd d085 acbd
00000060: 3e18 a2bd 1c9a 80bd 8b46 17bd 835a 1bbd
00000070: cd18 28bd 4334 4abd bd5a 5ebd 844a 77bc
00000080: 97f7 79bd 288a 50bd a09b 89bd 5828 8ebc
00000090: 4f32 05be f935 68bd f8c9 80bd 674a 80bd
000000a0: 5d4e 5abc 2e36 8cbc 86bd 17bc 281e 403d
000000b0: 959c aebd 6a68 94bd 2d17 f3bd 0d50 7abd
000000c0: 1418 86bd 1ebd 37bc ae18 49bd 9cd4 57bc
000000d0: 5777 ccbd df38 f2bd 48a0 80bd 6786 a73d
000000e0: 6dde 47bc c581 acbd a4e0 f03b 120e 1fbd
000000f0: e044 86bc b6ab 93bd eee6 5dbd fba8 83bd

conv2d_2/kernel i1 [64, 3, 3, 32] scale=0.0014725813 zero_point=0
-0.02208872 -0.04565002 0.0 -0.008835488 0.0014725813 0.06773874 -0.085409716 -0.07215648
0.020616138 -0.06921132 -0.0235613 -0.04417744 -0.051540345 -0.04565002 -0.04565002 -0.060375832
0.010308069 0.01178065 0.06479358 0.010308069 -0.019143557 0.03386937 0.042704858 -0.0942452
0.05890325 0.078046806 0.10749844 -0.0073629064 0.004417744 -0.039759696 0.038287114 -0.020616138
0.08246455 -0.051540345 0.085409716 0.053012926 -0.051540345 -0.02208872 0.005890325 0.07362907
0.08099197 0.054485507 -0.030924207 0.04417744 0.08099197 0.12222425 0.12811457 -0.005890325
0.005890325 0.10013553 0.01178065 -0.030924207 -0.042704858 0.0073629064 -0.05595809 0.016198395
0.017670976 0.04417744 -0.05743067 -0.048595183 0.005890325 -0.03386937 0.13253231 -0.041232277
-0.05890325 0.063320994 -0.026506463 -0.0132532315 -0.017670976 -0.016198395 -0.029451625 -0.04565002
-0.07215648 -0.026506463 0.042704858 0.0029451626 0.053012926 -0.029451625 0.11191618 -0.051540345
-0.027979044 0.017670976 -0.03239679 -0.07951939 0.08246455 -0.019143557 0.054485507 -0.10160811
0.038287114 -0.017670976 0.116333924 0.050067764 0.08393713 0.03386937 0.0471226 -0.053012926
0.014725813 0.050067764 0.010308069 0.07362907 -0.1178065 -0.05595809 0.042704858 0.0235613
-0.039759696 -0.03239679 -0.029451625 -0.0132532315 -0.05595809 0.014725813 -0.08099197 0.04417744
-0.026506463 0.038287114 0.014725813 0.07657423 -0.05743067 -0.019143557 0.06773874 -0.035341952
0.051540345 0.14431296 -0.051540345 -0.04565002 0.039759696 0.08393713 0.05890325 -0.038287114
-0.017670976 -0.051540345 0.060375832 -0.027979044 0.026506463 0.0471226 0.005890325 0.08835488
0.070683904 0.0 0.04417744 -0.036814533 0.05595809 0.0132532315 0.085409716 -0.005890325
0.017670976 0.03239679 -0.005890325 0.0471226 -0.048595183 0.07657423 -0.04417744 0.04565002
0.05890325 0.11338876 0.05890325 0.039759696 0.075101644 0.063320994 0.085409716 -0.054485507
0.030924207 -0.051540345 0.054485507 0.0029451626 0.0471226 -0.0471226 -0.017670976 0.025033882
-0.016198395 -0.017670976 -0.09866295 0.035341952 0.09277262 -0.027979044 0.005890325 0.07657423
-0.016198395 0.12222425 -0.07657423 -0.06921132 0.09130004 -0.1649291 -0.0235613 -0.042704858
0.050067764 -0.035341952 -0.038287114 -0.06773874 0.10749844 -0.03386937 -0.0132532315 0.020616138
0.05595809 -0.02208872 0.025033882 0.06626616 -0.07951939 0.050067764 0.085409716 -0.0132532315
0.07362907 -0.050067764 -0.04565002 -0.016198395 0.05595809 0.08246455 0.07657423 0.09130004
0.0014725813 0.08246455 -0.11486134 0.061848413 -0.016198395 -0.05595809 0.06479358 -0.11927909
0.020616138 0.0132532315 -0.004417744 -0.07362907 0.08835488 -0.06921132 0.0471226 -0.06626616
0.08688229 0.041232277 0.019143557 -0.05743067 0.039759696 0.0073629064 0.061848413 -0.03239679
0.10013553 0.048595183 0.08688229 -0.08099197 -0.027979044 0.05743067 -0.029451625 -0.089827456
-0.025033882 0.10602585 -0.06921132 -0.060375832 -0.019143557 0.008835488 0.07657423 -0.027979044
-0.053012926 0.0 0.061848413 0.0132532315 -0.03239679 -0.0235613 0.027979044 -0.07657423
00000000: f1e1 00fa 012e c6cf 0ed1 f0e2 dde1 e1d7
00000010: 0708 2c07 f317 1dc0 2835 49fb 03e5 1af2
00000020: 38dd 3a24 ddf1 0432 3725 eb1e 3753 57fc
00000030: 0444 08eb e305 da0b 0c1e d9df 04e9 5ae4
00000040: d82b eef7 f4f5 ece1 cfee 1d02 24ec 4cdd
00000050: ed0c eaca 38f3 25bb 1af4 4f22 3917 20dc
00000060: 0a22 0732 b0da 1d10 e5ea ecf7 da0a c91e
00000070: ee1a 0a34 d9f3 2ee8 2362 dde1 1b39 28e6
00000080: f4dd 29ed 1220 043c 3000 1ee7 2609 3afc
00000090: 0c16 fc20 df34 e21f 284d 281b 332b 3adb
000000a0: 15dd 2502 20e0 f411 f5f4 bd18 3fed 0434
000000b0: f553 ccd1 3e90 f0e3 22e8 e6d2 49e9 f70e
000000c0: 26f1 112d ca22 3af7 32de e1f5 2638 343e
000000d0: 0138 b22a f5da 2caf 0e09 fdce 3cd1 20d3
000000e0: 3b1c 0dd9 1b05 2aea 4421 3bc9 ed27 ecc3
000000f0: ef48 d1d7 f306 34ed dc00 2a09 eaf0 13cc

conv2d_3/Conv2D_bias f4 [64]
-0.010313263 -0.105495505 -0.0861494 -0.008207766 -0.028961323 -0.04798792 0.02079722 -0.034480713
-0.06489747 -0.04849334 -0.03346761 -0.06125581 -0.023513308 -0.017257791 -0.055398807 -0.036271624
-0.06242432 -0.10327312 -0.107290626 -0.02939626 -0.08491456 -0.005648852 -0.10433812 0.017076394
-0.042379264 -0.089432165 0.015752485 -0.10762224 -0.05029308 -0.092393145 -0.06302438 -0.01400066
-0.041426666 -0.039161064 0.008456902 -0.052035924 -0.050003044 -0.07345086 -0.050380845 -0.087308645
-0.00020647973 -0.021510324 -0.036106743 0.005155098 -0.081217095 -0.068868056 -0.05493721 -0.0035382109
0.0030123387 -0.08445125 -0.12285787 -0.037598077 -0.012092064 -0.091369845 -0.04664943 -0.0884586
-0.012377864 -0.08107429 -0.02602551 -0.0061520934 0.022273645 -0.019812364 -0.08370768 -0.06376117
00000000: f6f8 28bc 070e d8bd 196f b0bd de79 06bc
00000010: 4c40 edbc fb8e 44bd ee5e aa3c a63b 0dbd
00000020: f7e8 84bd f4a0 46bd 5515 09bd 5fe7 7abd
00000030: fb9e c0bc 3660 8dbc dce9 62bd 8e91 14bd
00000040: a5b0 7fbd dc80 d3bd 30bb dbbd 6dd0 f0bc
00000050: afe7 adbd 011a b9bb 39af d5bd cbe3 8b3c
00000060: e195 2dbd 3628 b7bd 5b0b 813c 0d69 dcbd
00000070: 1e00 4ebd 9e38 bdbd ed12 81bd 0663 65bc
00000080: 02af 29bd 5a67 20bd d18e 0a3c 9f23 55bd
00000090: fecf 4cbd 686d 96bd 255c 4ebd e0ce b2bd
000000a0: 7b82 58b9 6b36 b0bc aae4 13bd 19ec a83b
000000b0: 2655 a6bd b20a 8dbd d705 61bd 54e1 67bb
000000c0: a86a 453b c7f4 acbd e89c fbbd 7100 1abd
000000d0: cb1d 46bc 1d20 bbbd 7913 3fbd c829 b5bd
000000e0: 86cc 4abc 470a a6bd 7333 d5bc 8097 c9bb
000000f0: 3877 b63c 8a4d a2bc ef6e abbd 3795 82bd

conv2d_3/kernel i1 [64, 3, 3, 64] scale=0.001544224 zero_point=0
0.012353792 0.06640163 0.06949008 -0.001544224 -0.071034305 -0.001544224 -0.009265344 0.063313186
-0.003088448 0.03088448 0.06794585 0.020074911 0.004632672 -0.071034305 -0.03088448 -0.063313186
0.04169405 -0.055592064 -0.01544224 0.0 -0.0772112 -0.016986463 -0.020074911 -0.05095939
0.018530687 -0.063313186 0.027796032 -0.020074911 -0.035517152 -0.012353792 -0.00772112 -0.054047838
-0.004632672 -0.016986463 -0.055592064 -0.049415167 0.026251808 -0.080299646 -0.032428704 0.004632672
0.057136286 0.05095939 -0.055592064 -0.054047838 0.10655145 -0.016986463 -0.032428704 0.013898016
0.018530687 -0.018530687 -0.032428704 0.027796032 0.08184387 -0.07412275 -0.013898016 0.02316336
0.049415167 -0.037061375 -0.055592064 0.006176896 -0.057136286 -0.117361024 0.01544224 0.012353792
0.07566697 0.037061375 0.004632672 0.009265344 -0.006176896 0.04323827 0.003088448 -0.026251808
0.07566697 0.035517152 -0.06176896 -0.026251808 -0.080299646 0.035517152 0.04632672 -0.006176896
-0.02316336 -0.021619136 0.0 -0.040149823 -0.089564994 -0.052503616 0.004632672 -0.016986463
-0.040149823 -0.07566697 -0.04323827 0.05095939 -0.058680512 0.04169405 -0.003088448 -0.026251808
-0.032428704 -0.06640163 0.05095939 -0.03088448 0.04169405 -0.04632672 0.04632672 0.063313186
0.118905246 0.052503616 -0.06176896 0.037061375 0.004632672 -0.04169405 0.01544224 -0.1358917
-0.004632672 0.047870945 -0.024707584 0.0386056 0.11427257 0.047870945 0.063313186 0.040149823
-0.09728611 -0.071034305 -0.108095676 -0.0386056 0.054047838 -0.08493232 0.027796032 0.07257853
-0.054047838 0.013898016 -0.049415167 -0.029340256 -0.00772112 0.021619136 -0.024707584 0.00772112
0.013898016 0.0833881 -0.026251808 -0.029340256 0.016986463 -0.089564994 -0.08184387 0.035517152
0.09419766 0.052503616 0.08493232 0.018530687 0.055592064 0.07875542 -0.060224734 -0.0386056
0.058680512 -0.020074911 0.01544224 -0.049415167 -0.0386056 -0.09574189 0.004632672 0.026251808
-0.044782497 0.02316336 0.055592064 -0.016986463 0.10037456 -0.027796032 -0.001544224 0.0
0.12044947 0.09574189 0.003088448 -0.08493232 -0.021619136 -0.052503616 -0.044782497 0.001544224
0.0 -0.01544224 0.058680512 0.033972926 0.07566697 0.003088448 0.04632672 0.02316336
0.063313186 -0.058680512 -0.11427257 -0.08184387 -0.040149823 0.06640163 0.052503616 0.057136286
0.06176896 -0.02316336 -0.06640163 -0.060224734 -0.10500723 0.054047838 0.037061375 0.003088448
-0.047870945 -0.09265344 -0.07257853 -0.04323827 -0.03088448 -0.010809568 0.071034305 0.109639905
-0.07257853 -0.06485741 -0.06176896 0.054047838 0.035517152 -0.047870945 0.04169405 0.009265344
-0.060224734 0.0 -0.040149823 0.02316336 -0.010809568 0.054047838 0.058680512 -0.047870945
-0.013898016 0.04632672 -0.04323827 -0.032428704 0.018530687 -0.07566697 -0.06176896 -0.055592064
0.054047838 0.00772112 0.071034305 0.044782497 0.08493232 0.026251808 0.004632672 -0.089564994
0.009265344 -0.003088448 -0.06485741 0.029340256 -0.009265344 0.033972926 -0.0772112 0.06640163
-0.10191878 -0.080299646 -0.035517152 0.063313186 0.012353792 0.001544224 0.013898016 0.01544224
00000000: 082b 2dff d2ff fa29 fe14 2c0d 03d2 ecd7
00000010: 1bdc f600 cef5 f3df 0cd7 12f3 e9f8 fbdd
00000020: fdf5 dce0 11cc eb03 2521 dcdd 45f5 eb09
00000030: 0cf4 eb12 35d0 f70f 20e8 dc04 dbb4 0a08
00000040: 3118 0306 fc1c 02ef 3117 d8ef cc17 1efc
00000050: f1f2 00e6 c6de 03f5 e6cf e421 da1b feef
00000060: ebd5 21ec 1be2 1e29 4d22 d818 03e5 0aa8
00000070: fd1f f019 4a1f 291a c1d2 bae7 23c9 122f
00000080: dd09 e0ed fb0e f005 0936 efed 0bc6 cb17
00000090: 3d22 370c 2433 d9e7 26f3 0ae0 e7c2 0311
000000a0: e30f 24f5 41ee ff00 4e3e 02c9 f2de e301
000000b0: 00f6 2616 3102 1e0f 29da b6cb e62b 2225
000000c0: 28f1 d5d9 bc23 1802 e1c4 d1e4 ecf9 2e47
000000d0: d1d6 d823 17e1 1b06 d900 e60f f923 26e1
000000e0: f71e e4eb 0ccf d8dc 2305 2e1d 3711 03c6
000000f0: 06fe d613 fa16 ce2b becc e929 0801 090a

conv2d_4/Conv2D_bias f4 [64]
-0.080851205 -0.05379281 -0.1068428 -0.088466205 -0.057872184 -0.001747837 -0.026418464 -0.039947957
-0.055866297 -0.05336713 -0.005955537 -0.023318449 -0.04728071 -0.11144832 -0.020736724 -0.12349009
-0.048772987 -0.08635755 -0.074904636 -0.065162964 -0.05694335 -0.060046867 -0.11060664 -0.062377363
-0.06779484 -0.013880646 -0.062179405 -0.05132243 -0.010009946 -0.09174579 -0.05485735 -0.04843174
-0.043668665 -0.096642375 -0.08203362 -0.1338568 -0.08048416 -0.02042682 -0.06925324 -0.12550405
-0.11173908 -0.115343556 -0.11043212 -0.08816603 -0.12393126 0.014585761 -0.1319127 -0.09405804
-0.030884232 -0.018187255 -0.058585178 0.0022131873 -0.06571083 -0.06280753 -0.098716415 -0.15281919
-0.11649988 -0.08577477 -0.09234855 -0.07009016 -0.09968775 -0.16832897 -0.058431298 -0.12283375
00000000: 5195 a5bd d955 5cbd 66d0 dabd c52d b5bd
00000010: 620b 6dbd ae17 e5ba 896b d8bc 78a0 23bd
00000020: 0fd4 64bd 7e97 5abd aa26 c3bb 5506 bfbc
00000030: 6ba9 41bd 043f e4bd 10e0 a9bc 5fe8 fcbd
00000040: 2fc6 47bd 3adc b0bd 9a67 99bd 2974 85bd
00000050: 6e3d 69bd b4f3 75bd bc85 e2bd 687f 7fbd
00000060: 05d8 8abd a66b 63bc d5af 7ebd 7837 52bd
00000070: c200 24bc 37e5 bbbd 1ab2 60bd 5c60 46bd
00000080: eadd 32bd 70ec c5bd 3e01 a8bd c211 09be
00000090: e1d4 a4bd 2556 a7bc a5d4 8dbd 2284 00be
000000a0: 75d7 e4bd 3e39 ecbd 3c2a e2bd 6490 b4bd
000000b0: accf fdbd 1ef9 6e3c 1f14 07be 80a1 c0bd
000000c0: ee00 fdbc 70fd 94bc 03f7 6fbd 1f0b 113b
000000d0: 6693 86bd 3ca1 80bd d52b cabd a27c 1cbe
000000e0: 7d97 eebd afaa afbd 3d21 bdbd 6e8b 8fbd
000000f0: 1729 ccbd 6e5e 2cbe a855 6fbd 4390 fbbd

conv2d_4/kernel i1 [64, 3, 3, 64] scale=0.0014083666 zero_point=0
0.038025897 0.04506773 0.0549263 -0.039434265 -0.10703586 -0.019717133 -0.0211255 0.0084502
0.050701197 -0.1309781 0.06619323 -0.09436056 0.018308766 -0.050701197 0.06900997 0.0056334664
-0.025350599 0.043659363 0.06478486 0.0802769 0.05351793 -0.05774303 0.060559765 -0.009858566
0.012675299 0.0169004 0.023942232 0.0014083666 0.038025897 0.0169004 -0.011266933 -0.0014083666
-0.063376494 0.052109566 0.028167332 -0.038025897 0.0971773 0.0014083666 -0.047884464 0.0042251
-0.073235065 -0.1098526 0.0042251 -0.029575698 0.036617532 -0.06619323 0.0028167332 0.0014083666
-0.028167332 0.052109566 -0.026758965 0.011266933 -0.060559765 0.047884464 0.04084263 0.0971773
-0.042251 -0.026758965 -0.026758965 0.056334663 0.073235065 -0.030984065 -0.038025897 -0.10281076
0.023942232 0.08309363 0.0211255 0.0056334664 -0.08309363 0.0464761 0.019717133 0.026758965
-0.085910365 0.085910365 0.014083666 0.06478486 0.036617532 0.022533866 -0.07464343 -0.059151396
0.085910365 -0.04506773 0.06478486 0.042251 0.023942232 0.025350599 0.050701197 -0.05351793
-0.06619323 -0.04506773 0.0802769 -0.039434265 -0.11266933 0.0 0.07464343 -0.050701197
0.0802769 0.06478486 0.0042251 0.0014083666 -0.09154383 0.0 0.049292833 -0.029575698
-0.06900997 0.0 -0.05774303 -0.014083666 -0.0042251 0.019717133 -0.007041833 -0.088727094
-0.029575698 -0.084502 -0.038025897 -0.039434265 -0.030984065 0.022533866 -0.04506773 0.0084502
-0.012675299 0.0211255 -0.0014083666 -0.07886853 0.0718267 0.007041833 0.04506773 -0.0084502
0.085910365 0.028167332 0.07746016 -0.022533866 -0.06619323 0.056334663 -0.028167332 0.0676016
0.059151396 0.038025897 0.026758965 0.023942232 -0.0676016 -0.0014083666 -0.0042251 0.025350599
-0.014083666 -0.0718267 0.059151396 -0.052109566 0.029575698 -0.056334663 0.1098526 0.015492032
0.0169004 -0.038025897 0.014083666 0.039434265 -0.015492032 -0.022533866 -0.10844423 0.035209164
-0.06900997 0.012675299 0.025350599 0.0056334664 0.0169004 0.0056334664 -0.049292833 0.05774303
-0.07041833 -0.025350599 0.0718267 0.0169004 -0.023942232 -0.060559765 0.04506773 -0.0338008
0.0169004 -0.023942232 -0.009858566 -0.050701197 0.036617532 -0.015492032 0.0338008 -0.042251
0.0084502 0.018308766 -0.0169004 0.018308766 -0.0042251 -0.007041833 -0.018308766 0.014083666
-0.039434265 -0.025350599 -0.022533866 -0.009858566 -0.028167332 -0.014083666 -0.10421913 -0.056334663
-0.0028167332 -0.014083666 0.12675299 0.0338008 0.0338008 0.0464761 0.023942232 -0.056334663
0.060559765 -0.022533866 0.05774303 -0.023942232 0.0014083666 0.018308766 0.10703586 -0.060559765
-0.0056334664 -0.0338008 0.042251 0.073235065 0.0042251 -0.11548606 0.014083666 -0.05774303
0.0042251 0.042251 -0.03239243 0.05351793 -0.0464761 -0.12956972 0.056334663 0.029575698
-0.0084502 -0.036617532 0.085910365 -0.0718267 -0.060559765 -0.049292833 0.059151396 -0.073235065
-0.019717133 -0.025350599 0.029575698 0.030984065 -0.049292833 -0.030984065 0.0549263 0.087318726
0.039434265 0.10562749 -0.08168526 -0.06478486 0.023942232 0.0169004 0.0084502 -0.0084502
00000000: 1b20 27e4 b4f2 f106 24a3 2fbd 0ddc 3104
00000010: ee1f 2e39 26d7 2bf9 090c 1101 1b0c f8ff
00000020: d325 14e5 4501 de03 ccb2 03eb 1ad1 0201
00000030: ec25 ed08 d522 1d45 e2ed ed28 34ea e5b7
00000040: 113b 0f04 c521 0e13 c33d 0a2e 1a10 cbd6
00000050: 3de0 2e1e 1112 24da d1e0 39e4 b000 35dc
00000060: 392e 0301 bf00 23eb cf00 d7f6 fd0e fbc1
00000070: ebc4 e5e4 ea10 e006 f70f ffc8 3305 20fa
00000080: 3d14 37f0 d128 ec30 2a1b 1311 d0ff fd12
00000090: f6cd 2adb 15d8 4e0b 0ce5 0a1c f5f0 b319
000000a0: cf09 1204 0c04 dd29 ceee 330c efd5 20e8
000000b0: 0cef f9dc 1af5 18e2 060d f40d fdfb f30a
000000c0: e4ee f0f9 ecf6 b6d8 fef6 5a18 1821 11d8
000000d0: 2bf0 29ef 010d 4cd5 fce8 1e34 03ae 0ad7
000000e0: 031e e926 dfa4 2815 fae6 3dcd d5dd 2acc
000000f0: f2ee 1516 ddea 273e 1c4b c6d2 110c 06fa

dense/MatMul_bias f4 [128]
-0.009443955 0.019056963 -0.017553797 0.037610043 -0.0022269802 -0.03690307 0.04234688 0.013190471
0.012251773 0.008652836 -0.002691152 0.010419963 -0.021439552 -0.0014668226 0.012764892 0.005822736
0.015267708 0.02200861 0.015657531 -0.0024866639 -0.0041797776 0.037248634 0.006335678 0.027730696
-0.0037123074 0.002324126 0.0016881118 -0.036467154 -0.041702203 -0.00032963938 0.01023313 0.03899235
0.042834092 0.040458605 -0.011007195 0.010793669 -0.004029507 0.04863264 -0.004846024 -0.0036879606
-0.010043064 -0.004018354 -0.0314672 0.022880139 -0.007930883 0.010867124 -0.015614271 -0.040729277
-0.00075867877 0.0103824325 0.011124389 0.029652808 0.029739592 0.040900793 0.033947118 0.0046885316
0.008907583 0.024833353 0.02968277 0.020952128 0.011940504 0.016210016 0.03362446 0.011191527
0.011099763 -0.011446199 0.0071149757 -0.0053255893 0.0036000342 0.014326077 0.023774939 0.012297713
-0.0008073573 -0.004297905 0.010127085 -0.015036933 0.04655188 -0.006261574 -0.017219756 -0.013002751
-0.0023176703 -0.022060964 -0.025053006 0.0071912063 0.008291766 0.018325819 0.0024908066 0.005463196
0.035792015 0.011762196 -0.005453821 0.060571365 -0.024582135 -0.010305939 0.01313294 0.018263746
0.037933614 0.0048529566 0.0009783183 0.01568437 0.0046131536 0.019395664 0.005992883 0.0068427846
0.020369215 0.038280908 0.00840701 -0.014628396 -0.005542139 -0.04452556 0.012473185 -0.009374357
0.025034605 0.03230012 0.02472856 -0.006201947 -0.014890392 -0.0070270025 0.031662468 0.0062231533
0.033127293 0.032736175 0.016909536 -0.038241446 0.002772431 -0.0040262393 0.01149288 -0.004392766
00000000: d1ba 1abc 591d 9c3c fbcc 8fbc fd0c 1a3d
00000010: 87f2 11bb ac27 17bd ec73 2d3d d81c 583c
00000020: a9bb 483c a0c4 0d3c 0a5e 30bb 7eb8 2a3c
00000030: 00a2 afbc 6642 c0ba d623 513c a6cc be3b
00000040: 6925 7a3c 674b b43c 3944 803c 4cf7 22bb
00000050: 84f6 88bb 0692 183d 859b cf3b 7c2b e33c
00000060: 2f4a 73bb 5d50 183b a243 dd3a 955e 15bd
00000070: eecf 2abd 73d3 acb9 dca8 273c 71b6 1f3d
00000080: cd72 2f3d ecb7 253d 8657 34bc eed7 303c
00000090: f409 84bb 0533 473d 65cb 9ebb b6b1 71bb
000000a0: aa8b 24bc 66ac 83bb c0e3 00bd 216f bb3c
000000b0: 89f0 01bc 060c 323c 00d3 7fbc bed3 26bd
000000c0: 12e2 46ba 141b 2a3c 1243 363c 72ea f23c
000000d0: 72a0 f33c 9787 273d 220c 0b3d 41a2 993b
000000e0: 1cf1 113c 516f cb3c 4829 f33c cca3 ab3c
000000f0: 1ba2 433c deca 843c cdb9 093d ab5c 373c
00000100: c8db 353c d788 3bbc be24 e93b 4882 aebb
00000110: 8dee 6b3b ecb7 6a3c a9c3 c23c 597c 493c
00000120: d5a4 53ba 71d5 8cbb 13ec 253c 785d 76bc
00000130: 2fad 3e3d e42d cdbb 7210 8dbc 7e09 55bc
00000140: 0ee4 17bb 32b9 b4bc f63b cdbc 36a4 eb3b
00000150: 30da 073c 0720 963c cd3c 233b 9c04 b33b
00000160: a69a 123d 3ab6 403c f7b5 b2bb ae19 783d
00000170: 7960 c9bc 3eda 28bc 8b2b 573c da9d 953c
00000180: 4760 1b3d 8d05 9f3b ea3a 803a 827c 803c
00000190: f029 973b a8e3 9e3c f25f c43b 7039 e03b
000001a0: 57dd a63c 71cc 1c3d 8ebd 093c f1ab 6fbc
000001b0: d59a b5bb 6f60 36bd 545c 4c3c e796 19bc
000001c0: 5f15 cd3c 214d 043d 8d93 ca3c b439 cbbb
000001d0: d5f6 73bc c542 e6bb 81b0 013d 98eb cb3b
000001e0: 7cb0 073d 5e16 063d de85 8a3c 10a3 1cbd
000001f0: acb1 353b 8bee 83bb a24c 3c3c 31f1 8fbb

dense/kernel/transpose i1 [128, 1024] scale=0.0017768372 zero_point=0
-0.017768372 0.09061869 -0.0053305114 -0.03731358 -0.044420928 0.110163905 0.060412463 -0.0035536743
0.049751442 0.040867254 0.058635626 0.0124378605 -0.055081952 0.0071073486 0.0017768372 0.03198307
0.0 0.06929665 0.049751442 0.03731358 0.060412463 -0.11371758 0.0071073486 0.0621893
0.033759907 -0.0035536743 0.058635626 -0.017768372 -0.09061869 0.047974605 -0.0124378605 0.046197765
-0.024875721 0.026652558 0.015991535 -0.0035536743 -0.0071073486 0.055081952 -0.0071073486 0.07462716
-0.019545209 -0.021322045 0.055081952 -0.026652558 -0.040867254 0.010661023 0.05685879 -0.046197765
0.04264409 -0.03198307 0.0053305114 -0.030206231 0.0 0.07107349 -0.017768372 0.10127972
0.015991535 -0.058635626 0.058635626 0.0071073486 0.015991535 -0.0053305114 -0.11904809 -0.14925432
0.0017768372 -0.0071073486 0.1439238 -0.008884186 0.040867254 0.028429395 0.09061869 -0.058635626
-0.03198307 0.008884186 -0.05152828 0.0017768372 -0.0035536743 0.026652558 -0.014214697 0.035536744
-0.05152828 0.049751442 0.030206231 0.07995767 -0.010661023 -0.07462716 0.044420928 0.10305656
-0.024875721 -0.08706502 0.07462716 0.019545209 -0.0053305114 -0.0035536743 -0.083511345 -0.033759907
-0.019545209 -0.010661023 -0.033759907 -0.072850324 0.03198307 0.03731358 0.015991535 0.10661023
0.067519814 0.060412463 0.0621893 -0.023098882 0.047974605 0.010661023 -0.030206231 0.046197765
-0.023098882 -0.024875721 0.088841856 -0.039090417 -0.015991535 0.023098882 -0.12260176 0.0071073486
0.060412463 0.014214697 0.060412463 0.047974605 -0.0071073486 0.0124378605 -0.083511345 -0.055081952
0.0035536743 0.040867254 0.088841856 -0.06396614 0.035536744 -0.010661023 0.0017768372 -0.035536744
-0.040867254 0.008884186 0.055081952 -0.078180835 0.06396614 -0.0035536743 0.0124378605 0.078180835
-0.076404 -0.0035536743 0.0053305114 -0.028429395 -0.040867254 -0.026652558 0.021322045 0.039090417
0.047974605 -0.026652558 0.028429395 0.014214697 0.072850324 0.030206231 -0.05152828 -0.06929665
0.047974605 0.083511345 -0.0071073486 0.040867254 0.014214697 -0.053305116 0.0071073486 0.05685879
0.046197765 0.044420928 0.0 -0.039090417 0.0017768372 0.028429395 0.053305116 0.017768372
-0.026652558 0.083511345 0.072850324 -0.04264409 0.06396614 0.12615544 0.024875721 -0.028429395
-0.044420928 -0.0035536743 0.104833394 0.035536744 -0.0124378605 0.07107349 -0.028429395 0.0035536743
-0.076404 -0.040867254 0.1385933 0.08173451 0.04264409 0.05152828 -0.047974605 -0.026652558
-0.010661023 -0.078180835 -0.0017768372 0.026652558 -0.0053305114 0.017768372 0.028429395 0.0
-0.07107349 0.049751442 0.07995767 0.030206231 -0.047974605 0.039090417 0.017768372 0.023098882
0.06396614 -0.11904809 0.06396614 0.06929665 0.026652558 0.015991535 0.0035536743 -0.1385933
-0.07995767 0.017768372 -0.017768372 -0.08706502 -0.033759907 0.046197765 -0.028429395 0.06929665
-0.0053305114 -0.023098882 0.026652558 -0.055081952 0.058635626 0.06396614 0.055081952 -0.039090417
-0.0035536743 0.13148595 0.0017768372 -0.0053305114 -0.019545209 0.078180835 -0.04264409 0.08528818
-0.010661023 -0.104833394 -0.03731358 0.072850324 0.028429395 -0.010661023 -0.06574298 -0.03198307
00000000: f633 fdeb e73e 22fe 1c17 2107 e104 0112
00000010: 0027 1c15 22c0 0423 13fe 21f6 cd1b f91a
00000020: f20f 09fe fc1f fc2a f5f4 1ff1 e906 20e6
00000030: 18ee 03ef 0028 f639 09df 2104 09fd bdac
00000040: 01fc 51fb 1710 33df ee05 e301 fe0f f814
00000050: e31c 112d fad6 193a f2cf 2a0b fdfe d1ed
00000060: f5fa edd7 1215 093c 2622 23f3 1b06 ef1a
00000070: f3f2 32ea f70d bb04 2208 221b fc07 d1e1
00000080: 0217 32dc 14fa 01ec e905 1fd4 24fe 072c
00000090: d5fe 03f0 e9f1 0c16 1bf1 1008 2911 e3d9
000000a0: 1b2f fc17 08e2 0420 1a19 00ea 0110 1e0a
000000b0: f12f 29e8 2447 0ef0 e7fe 3b14 f928 f002
000000c0: d5e9 4e2e 181d e5f1 fad4 ff0f fd0a 1000
000000d0: d81c 2d11 e516 0a0d 24bd 2427 0f09 02b2
000000e0: d30a f6cf ed1a f027 fdf3 0fe1 2124 1fea
000000f0: fe4a 01fd f52c e830 fac5 eb29 10fa dbee

dense_1/MatMul_bias f4 [39]
0.021610888 -0.03745857 0.021569973 0.007939469 -0.02692429 -0.020947099 -0.028967114 0.029138621
-0.040208932 -0.012995854 0.0037185634 -0.011520829 -0.03553101 -0.021056177 -0.0153753515 -0.031718206
0.007260934 -0.027061265 -0.012873569 -0.05180889 -0.0001641719 0.00827122 -0.009400376 -0.02596322
-0.012336975 0.018692087 0.021233816 0.00033837897 -0.022117766 0.04298739 -0.030581396 0.017865859
-0.010927193 -0.0072144093 0.01320107 -0.0435794 -0.047866244 -0.008398067 -0.020617912
00000000: 5109 b13c 286e 19bd 83b3 b03c 8c14 023c
00000010: 5490 dcbc 4099 abbc 714c edbc 1eb4 ee3c
00000020: 1fb2 24bd 90ec 54bc 24b3 733b dcc1 3cbc
00000030: f788 11bd 017e acbc e6e8 7bbc f3ea 01bd
00000040: 21ed ed3b 96af ddbc a9eb 52bc 8f35 54bd
00000050: 8f25 2cb9 0384 073c 0904 1abc d2b0 d4bc
00000060: 0621 4abc 2620 993c 8af2 ad3c 7568 b139
00000070: 5130 b5bc 8c13 303d d685 fabc 6c5b 923c
00000080: f807 33bc da66 ecbb 4d49 583c 5080 32bd
00000090: 650f 44bd 0c98 09bc e5e6 a8bc
