models/model.tflite (tflite, 942024 bytes, 24 tensors)

sequential/conv2d/BiasAdd/ReadVariableOp/resource f4 [16]
-0.00886255 0.015563972 0.068556346 0.030925076 0.011220551 0.020767024 0.061667684 0.030304022
0.028179258 0.032609094 -0.007644298 0.031464882 -0.0031088907 -0.005349981 0.011600774 0.089374244
00000000: 3b34 11bc 0800 7f3c 4567 8c3d 9656 fd3c
00000010: 67d6 373c 9b1f aa3c 4197 7c3d 2440 f83c
00000020: 30d8 e63c 1d91 053d 057d fabb 52e1 003d
00000030: 88be 4bbb e54e afbb 2c11 3e3c d809 b73d

sequential/conv2d_1/BiasAdd/ReadVariableOp/resource f4 [32]
-0.068802506 0.015667176 -0.04553656 0.017115137 -0.03303374 0.0051315613 -0.028100757 -0.10493825
0.008101255 -0.14061674 -0.013210956 -0.03697512 0.03820478 -0.008483286 -0.00218699 -0.06307538
-0.058488544 -0.012660148 -0.030765519 -0.04261258 -0.05128703 -0.021807766 -0.020349868 0.025684666
-0.022931674 -0.027429728 0.063972905 0.0018484512 -0.056350775 0.013558588 0.0136771 -0.06485802
00000000: 54e8 8cbd 7358 803c 8b84 3abd 0b35 8c3c
00000010: 634e 07bd a826 a83b 8f33 e6bc dde9 d6bd
00000020: 20bb 043c d6fd 0fbe c472 58bc 3973 17bd
00000030: 9e7c 1c3d 7bfd 0abc 9b53 0fbb aa2d 81bd
00000040: af91 6fbd 826c 4fbc f807 fcbc 878a 2ebd
00000050: 5912 52bd 33a6 b2bc c4b4 a6bc a668 d23c
00000060: 35db bbbc 4fb4 e0bc 3a04 833d bb47 f23a
00000070: 12d0 66bd d724 5e3c ea15 603c 48d4 84bd

sequential/conv2d_2/BiasAdd/ReadVariableOp/resource f4 [64]
0.013731857 0.040379148 -0.11750008 -0.077613905 -0.015314428 -0.017373558 -0.010403501 -0.09191546
-0.060185093 -0.07065862 -0.045615815 -0.17555723 0.009815397 -0.060128715 -0.09174995 -0.11802216
0.0038897076 -0.10876235 -0.027620569 -0.011770963 -0.03838816 -0.031258546 0.008281499 0.016496867
-0.052704208 -0.07556533 -0.086281896 -0.08532149 -0.0136549 -0.0789362 -0.036374334 0.061323863
-0.071325354 -0.030154368 -0.044666078 -0.044361852 0.010192143 -0.0795143 -0.07710588 -0.08719582
-0.05439488 -0.038997255 -0.119198054 -0.12089786 0.023713399 -0.04910679 -0.04456433 -0.10145253
-0.008138987 -0.080177486 -0.09169803 0.0040067737 -0.053532112 -0.06303512 -0.04211376 -0.032691505
-0.011377236 0.041382268 -0.05904294 -0.011632683 -0.038188517 -0.045068424 -0.044493288 -0.11103082
00000000: 95fb 603c 9b64 253d e2a3 f0bd 0af4 9ebd
00000010: 5ee9 7abc fe52 8ebc 7273 2abc 2c3e bcbd
00000020: a584 76bd 77b5 90bd a6d7 3abd 46c5 33be
00000030: c2d0 203c 8749 76bd 66e7 bbbd 9ab5 f1bd
00000040: 77ea 7e3b ccbe debd 8844 e2bc ffda 40bc
00000050: e73c 1dbd f608 00bd 20af 073c 7024 873c
00000060: 5ee0 57bd ffc1 9abd 90b4 b0bd 09bd aebd
00000070: cdb8 5fbc 4da9 a1bd 41fd 14bd bb2e 7b3d
00000080: 0713 92bd 4b06 f7bc c7f3 36bd c6b4 35bd
00000090: f2fc 263c 65d8 a2bd b0e9 9dbd b993 b2bd
000000a0: 2acd 5ebd 96bb 1fbd 1c1e f4bd 4c99 f7bd
000000b0: 9a42 c23c 3424 49bd 1689 36bd 58c6 cfbd
000000c0: 6359 05bc 1834 a4bd 2dcc bbbd 414b 833b
000000d0: 7d44 5bbd 8f18 81bd 7a7f 2cbd 87e7 05bd
000000e0: 9667 3abc 7480 293d 03d7 71bd 0297 3ebc
000000f0: 906b 1cbd ab99 38bd 983e 36bd 2064 e3bd

sequential/conv2d_3/BiasAdd/ReadVariableOp/resource f4 [64]
-0.060478974 0.020497635 -0.016313424 -0.023153627 -0.0024710726 -0.064377524 -0.01003718 -0.020389594
-0.034728058 -0.020722108 -0.105456546 0.0035529637 -0.08185834 -0.11580731 -0.11142061 -0.06432868
-0.054228626 -0.0872706 -0.037203394 -0.08461444 -0.10230143 -0.04024621 -0.08335426 -0.124909356
-0.10583515 0.011441241 0.015053988 -0.0192558 -0.019324873 -0.043453217 -0.0293341 -0.04884349
-0.11193797 0.008845105 -0.028560238 -0.04655547 -0.09942563 -0.029089242 -0.024019832 0.003152842
-0.057124525 -0.05898853 -0.081122436 -0.033350736 -0.07677475 -0.06963846 0.025527487 -0.123343445
-0.08862898 -0.039924182 -0.066322 -0.06006247 -0.04093295 -0.001825591 0.05454233 -0.10679506
0.007022167 -0.069759525 -0.0924723 -0.060562704 -0.013131232 0.0065041203 -0.054589335 0.0031902532
00000000: cdb8 77bd a8ea a73c bba3 85bc adac bdbc
00000010: b8f1 21bb 5dd8 83bd fc72 24bc 1408 a7bc
00000020: 023f 0ebd 69c1 a9bc 9af9 d7bd d7d8 683b
00000030: 58a5 a7bd 622c edbd 7d30 e4bd c1be 83bd
00000040: d61e 5ebd eeba b2bd 9662 18bd 564a adbd
00000050: 6a83 d1bd 36d9 24bd a3b5 aabd 7ad0 ffbd
00000060: 19c0 d8bd 0b74 3b3c 01a5 763c 57be 9dbc
00000070: 324f 9ebc 00fc 31bd 114e f0bc 1d10 48bd
00000080: bc3f e5bd 0feb 103c 29f7 e9bc f3b0 3ebd
00000090: aa9f cbbd 904c eebc 3dc5 c4bc e99f 4e3b
000000a0: 68fb 69bd f59d 71bd 8523 a6bd c89a 08bd
000000b0: 153c 9dbd 9c9e 8ebd 051f d13c 7d9b fcbd
000000c0: 1c83 b5bd 8a87 23bd d4d3 87bd 1104 76bd
000000d0: 4fa9 27bd ab48 efba c767 5f3d 5eb7 dabd
000000e0: 351a e63b 15de 8ebd 1e62 bdbd 9910 78bd
000000f0: 6124 57bc 8420 d53b 1199 5fbd 9113 513b

sequential/conv2d_4/BiasAdd/ReadVariableOp/resource f4 [64]
-0.009334441 -0.044191863 -0.11139285 0.0019922464 -0.04469988 0.009437771 -0.1389111 -0.07777856
-0.056327295 -0.064004675 -0.18510114 -0.012604044 -0.07687837 -0.05161342 -0.013495539 -0.023782333
-0.09441185 -0.08643169 -0.044715922 -0.08646434 0.00013997205 -0.1315886 -0.09703875 -0.11644134
-0.08730714 -0.08786167 -0.14274083 -0.12470673 -0.10193154 -0.0896161 -0.09776435 -0.024676912
-0.033402126 -0.08172159 -0.13175087 -0.109880656 -0.021699518 -0.08830932 -0.05023714 0.04380226
-0.094548084 -0.028775241 -0.1603262 -0.011425211 -0.04083771 -0.19061047 -0.11462671 -0.04819627
-0.07351836 0.038419176 -0.04362883 0.011929338 -0.06419679 -0.181007 -0.0631864 -0.055740744
-0.011826811 -0.11664841 -0.15580711 -0.060996354 -0.0009637942 -0.06919198 -0.17551208 -0.068558745
00000000: 7cef 18bc 8702 35bd ef21 e4bd 5990 023b
00000010: 3917 37bd e1a0 1a3c b63e 0ebe 5e4a 9fbd
00000020: 73b7 66bd e214 83bd 278b 3dbe 3181 4ebc
00000030: 6872 9dbd 9868 53bd 651c 5dbc 2bd3 c2bc
00000040: 005b c1bd 1903 b1bd 0b28 37bd 3714 b1bd
00000050: 76c5 1239 29bf 06be 41bc c6bd cc78 eebd
00000060: 16ce b2bd d2f0 b3bd a72a 12be 3e66 ffbd
00000070: 7cc1 d0bd a588 b7bd ad38 c8bd 3c27 cabc
00000080: abd0 08bd a65d a7bd b3e9 06be 1c09 e1bd
00000090: 30c3 b1bc 84db b4bd 76c5 4dbd 006a 333d
000000a0: 6da2 c1bd 0eba ebbc 8d2c 24be cf30 3bbc
000000b0: 7145 27bd 642f 43be 69c1 eabd 7469 45bd
000000c0: cb90 96bd 6d5d 1d3d 25b4 32bd 4573 433c
000000d0: 9b79 83bd e659 39be df67 81bd 6850 64bd
000000e0: 3ec5 41bc 5de5 eebd e68b 1fbe 50d7 79bd
000000f0: 22a7 7cba 86b4 8dbd 70b9 33be 8768 8cbd

sequential/dense/BiasAdd/ReadVariableOp/resource f4 [128]
0.020181015 -0.005623902 0.031037284 0.056436352 0.056543726 0.022210559 0.039549854 -0.024783337
0.015218832 -0.021146748 0.023012638 0.027019905 0.030583402 0.043618742 0.008318883 0.0055654496
0.032053556 -0.0051762997 0.018201502 0.027369218 0.0025226509 0.02259541 -0.0398014 0.036352497
-0.005395679 0.031151598 -0.01021261 0.037827887 -0.031758253 0.019197276 0.012830547 0.032039665
0.011929655 0.027155282 0.025007334 -0.006536101 -0.013578809 0.006287622 -0.022467151 0.018576188
0.0038743846 0.0182039 0.012835029 0.0030877653 -0.015047312 -8.883261e-05 0.044412475 0.02277219
0.0045279507 0.025941059 -0.010270451 0.040835608 -0.0033174194 0.0021848322 -0.022616366 0.07399468
0.026591314 0.0012631882 0.035456702 0.0145517085 0.0038951917 0.03151775 -0.00019228975 0.07103051
0.016458035 -0.005614232 0.031254906 -0.029293502 -0.03215957 -0.0041010333 0.036802825 0.00041052757
-0.01829206 0.023027532 0.0011804317 -0.020371683 0.00039678204 0.0029532164 -0.00060746644 0.031114455
0.008208795 0.03058066 -0.0028067701 0.024332881 -0.0064287274 0.005820076 0.017415231 -0.018564744
-0.0005233094 0.015982004 0.0011407417 0.036578648 0.008236761 -0.022311766 0.007682062 0.015930751
-0.004618752 -0.00931213 0.01619777 0.013535821 0.012808972 0.0071698315 0.03824528 0.034728665
0.006515294 -0.009352706 0.026728915 0.014445137 -0.0028533621 0.0052601364 0.01888993 0.03210562
0.0023379882 0.013141542 0.0004934627 0.018690346 0.0670313 0.0002675547 0.002556432 0.029147495
0.028098512 0.007218411 -0.01031958 0.036580805 0.016577924 0.004513691 0.007421677 0.04546348
00000000: a852 a53c b648 b8bb e741 fe3c ce29 673d
00000010: 659a 673d ebf2 b53c 07ff 213d 6d06 cbbc
00000020: 6858 793c f23b adbc 0085 bc3c d958 dd3c
00000030: 0b8a fa3c 91a9 323d ed4b 083c 605e b63b
00000040: 974a 033d f39d a9bb 511b 953c 6935 e03c
00000050: 0f53 253b 021a b93c cb06 23bd 5be6 143d
00000060: 3cce b0bb a331 ff3c ca52 27bc 6af1 1a3d
00000070: f114 02bd 9b43 9d3c 3737 523c 063c 033d
00000080: 9a74 433c c174 de3c 2edc cc3c ca2c d6bb
00000090: a779 5ebc 6508 ce3b 080d b8bc 172d 983c
000000a0: 63e9 7d3b 5820 953c 034a 523c 1b5c 4a3b
000000b0: 0089 76bc a54b bab8 dbe9 353d be8c ba3c
000000c0: 345f 943b 5882 d43c 6545 28bc 3d43 273d
000000d0: 1069 59bb 672f 0f3b f545 b9bc 868a 973d
000000e0: 07d6 d93c 9091 a53a 0c3b 113d 4a6a 6e3c
000000f0: 7946 7f3b c218 013d 63a1 49b9 7278 913d
00000100: 00d3 863c 97f7 b7bb 2505 003d edf8 efbc
00000110: c1b9 03bd f661 86bb 8fbe 163d 143c d739
00000120: 3bd9 95bc 3ca4 bc3c b7b8 9a3a 84e2 a6bc
00000130: 2f07 d039 c08a 413b 623e 1fba bee3 fe3c
00000140: 2f7e 063c 4b84 fa3c caf1 37bb c055 c73c
00000150: 13a8 d2bb 56b6 be3b 63aa 8e3c 1715 98bc
00000160: b32e 09ba b1ec 823c f184 953a 7ed3 153d
00000170: 7bf3 063c 2ac7 b6bc cfb9 fb3b 3581 823c
00000180: e658 97bb e791 18bc 30b1 843c 59c5 5d3c
00000190: b9dc 513c e8f0 ea3b 15a7 1c3d a53f 0e3d
000001a0: 3f7e d53b 183c 19bc 99f6 da3c 4cab 6c3c
000001b0: 79ff 3abb 395d ac3b 0ebf 9a3c 2f81 033d
000001c0: ef38 193b 9f4f 573c b95b 013a 7f1c 993c
000001d0: b547 893d 9546 8c39 d089 273b bac6 ee3c
000001e0: da2e e63c 6c88 ec3b 7513 29bc c1d5 153d
000001f0: 6dce 873c 96e7 933b 8a31 f33b ea37 3a3d

sequential/dense_1/BiasAdd/ReadVariableOp/resource f4 [34]
0.013914827 -0.038883686 -0.0009794241 0.016599484 0.0122532165 -0.0026368583 -0.0005441228 0.007623249
-0.026079915 0.0011570145 -0.020915216 0.0063903946 0.016675554 -0.035799447 -0.03241024 -0.002225208
0.00617484 0.026336975 0.032880936 0.027171548 -0.01293284 0.041688863 0.018355614 -0.012430758
-0.008865637 0.035828087 0.021087319 -0.01666604 -0.00444419 -0.0072284294 0.03148886 -0.016232045
-0.040663615 -0.036266927
00000000: 04fb 633c 8044 1fbd 0560 80ba a4fb 873c
00000010: b7c1 483c 24cf 2cbb 77a3 0eba 73cc f93b
00000020: 8ca5 d5bc f7a6 973a 6356 abbc 8466 d13b
00000030: 2c9b 883c 71a2 12bd 9ac0 04bd ccd4 11bb
00000040: 5056 ca3b a4c0 d73c 29ae 063d de96 de3c
00000050: 43e4 53bc f1c1 2a3d 835e 963c 61aa 4bbc
00000060: 2d41 11bc 79c0 123d 50bf ac3c 3887 88bc
00000070: 91a0 91bb 76dc ecbb 76fa 003d 11f9 84bc
00000080: e48e 26bd a18c 14bd

sequential/batch_normalization/FusedBatchNormV3 f4 [16]
-0.58359516 -1.8188834 -2.301312 -0.09122546 -0.28911462 0.020877477 -1.8128115 -1.8373045
-0.039875034 -1.161833 -0.007430455 -1.7409759 -0.06888047 -2.0692604 -1.3370588 -1.6657872
00000000: 7e66 15bf 2cd1 e8bf b248 13c0 6ad4 babd
00000010: d506 94be 3e07 ab3c 350a e8bf cb2c ebbf
00000020: 0154 23bd f2b6 94bf 2d7b f3bb 4cd8 debf
00000030: 3411 8dbd c36e 04c0 be24 abbf 8438 d5bf

sequential/batch_normalization/FusedBatchNormV31 f4 [16]
19.079672 13.90828 9.5968 32.977978 21.604826 31.351158 16.42249 10.872964
32.047436 15.90821 31.700916 6.475145 30.990528 4.3369455 13.480798 17.411596
00000000: 2ba3 9841 5188 5e41 7e8c 1941 73e9 0342
00000010: afd6 ac41 2ccf fa41 4261 8341 a9f7 2d41
00000020: 9330 0042 0788 7e41 7a9b fd41 6334 cf40
00000030: 9aec f741 42c8 8a40 59b1 5741 f34a 8b41

sequential/batch_normalization_1/FusedBatchNormV3 f4 [32]
-0.24672344 -0.6702598 -0.7694938 -0.45520318 -0.67526126 -0.669329 -0.38627067 -0.76869
-0.6578543 -0.84036505 -0.7132484 -0.31299382 -0.64501035 -0.7012128 -0.5140095 -0.8365822
-0.6249274 -0.28675032 -0.8820432 -0.49604177 -0.5394496 -0.56888694 -0.5595709 -0.45019817
-0.40956858 -0.8209432 -0.86129194 -0.54639393 -0.36330876 -0.46559685 -0.3550722 -0.9618811
00000000: 12a5 7cbe 2596 2bbf 8cfd 44bf 6410 e9be
00000010: ecdd 2cbf 2559 2bbf 45c5 c5be dec8 44bf
00000020: 2469 28bf 2a22 57bf 7297 36bf ba40 a0be
00000030: 661f 25bf af82 33bf 2096 03bf 402a 56bf
00000040: 3efb 1fbf f0d0 92be 95cd 61bf 30f9 fdbe
00000050: 5e19 0abf 93a2 11bf 0a40 0fbf 6080 e6be
00000060: f9b2 d1be 5529 52bf a17d 5cbf 79e0 0bbf
00000070: 9b03 babe b662 eebe 06cc b5be d73d 76bf

sequential/batch_normalization_1/FusedBatchNormV31 f4 [32]
1.5660856 1.7167453 1.2459706 2.0876155 1.0647548 2.0777879 7.3741827 2.114599
2.7909505 1.5666379 3.3150854 3.790672 2.689725 2.122093 2.855034 1.1348047
1.7083852 3.8903337 2.0366485 1.6894866 1.3699971 0.8946957 2.3690748 2.5677693
3.1138182 1.8018366 2.375655 3.1066928 2.8875096 3.8899844 4.32176 1.2258538
00000000: 7e75 c83f 4fbe db3f f77b 9f3f 7e9b 0540
00000010: e349 883f 7afa 0440 4ef9 eb40 9755 0740
00000020: ef9e 3240 9787 c83f 5c2a 5440 5f9a 7240
00000030: 7424 2c40 5fd0 0740 e1b8 3640 4841 913f
00000040: 5eac da3f 3afb 7840 7358 0240 1941 d83f
00000050: 115c af3f c70a 653f ec9e 1740 5556 2440
00000060: cc48 4740 95a2 e63f bb0a 1840 0ed4 4640
00000070: f5cc 3840 81f5 7840 dc4b 8a40 c7e8 9c3f

sequential/batch_normalization_2/FusedBatchNormV3 f4 [64]
-0.6931036 -0.8796646 -0.7400578 -0.6311532 -0.68003297 -0.5997729 -0.35908067 -0.25985914
-0.8649091 -0.48373502 -0.72490954 -0.43348515 -0.46148506 -0.5050265 -0.5966567 -0.35221246
-0.5429596 -0.6241232 -0.52912104 -0.37031597 -0.7526811 -0.6237084 -0.5190804 -0.45545256
-0.47950807 -0.43344963 -0.3612591 -0.48591432 -0.65998507 -0.29626453 -0.37516442 -0.4769455
-0.38487816 -0.6763704 -0.44883704 -0.79729676 -0.76905626 -0.46919656 -0.5444599 -0.5443105
-0.5733642 -0.54579693 -0.71975106 -0.41821808 -0.5242276 -0.62359685 -0.75961095 -0.6449081
-0.39101547 -0.77218395 -0.84655255 -0.75063944 -0.31546995 -0.5451949 -0.7028532 -0.4458032
-0.5695609 -0.51577085 -0.64143646 -0.34051362 -0.4842033 -0.50089306 -0.52640665 -0.5751469
00000000: 3d6f 31bf b331 61bf 6e74 3dbf 4293 21bf
00000010: a416 2ebf b78a 19bf 6cd9 b7be 420c 85be
00000020: af6a 5dbf 1eac f7be ac93 39bf c4f1 ddbe
00000030: c547 ecbe 6b49 01bf 7ebe 18bf 3155 b4be
00000040: 66ff 0abf 8ac6 1fbf 7a74 07bf 0e9a bdbe
00000050: b5af 40bf 5bab 1fbf 74e2 04bf 1431 e9be
00000060: 1582 f5be 1ced ddbe f4f6 b8be c3c9 f8be
00000070: c8f4 28bf fcaf 97be 8d15 c0be 3332 f4be
00000080: c00e c5be 9c26 2dbf f8cd e5be a41b 4cbf
00000090: dfe0 44bf 883a f0be b961 0bbf ef57 0bbf
000000a0: ffc7 12bf 59b9 0bbf 9b41 38bf ae20 d6be
000000b0: c833 06bf 0ba4 1fbf dd75 42bf b218 25bf
000000c0: 2e33 c8be d9ad 45bf abb7 58bf e829 40bf
000000d0: 4785 a1be e591 0bbf 30ee 33bf 5140 e4be
000000e0: bece 11bf 8f09 04bf 2e35 24bf cd57 aebe
000000f0: 7fe9 f7be 873a 00bf 96c2 06bf d43c 13bf

sequential/batch_normalization_2/FusedBatchNormV31 f4 [64]
0.95552945 0.66692406 0.58532596 0.74891305 0.8793917 1.1960053 1.6162395 0.99090624
0.47206557 0.9864433 0.6795565 1.5526714 1.4473711 1.5563847 1.5385504 1.5963612
0.80952805 1.0388753 1.9953526 1.606151 0.6113207 0.8109696 1.3221664 1.0532787
1.9717697 0.9831071 2.34782 1.745654 1.0178537 1.8359436 2.7662451 1.1207433
0.97961086 0.7993697 1.3781834 0.6170101 0.7634906 1.3260003 0.8833023 0.63876903
0.7469734 1.0910817 0.78749126 2.1734538 1.6090934 0.46423572 0.46036956 1.00748
1.6971247 0.5808738 0.7567301 0.5730905 2.1304388 0.8793845 0.39599484 1.4140015
1.3257152 1.2604386 0.5781628 2.6704776 1.3804688 1.0177218 1.0073588 1.4936591
00000000: 949d 743f 89bb 2a3f ecd7 153f c4b8 3f3f
00000010: d01f 613f b416 993f f0e0 ce3f 08ac 7d3f
00000020: 94b2 f13e 8c87 7c3f 6af7 2d3f f0bd c63f
00000030: 7543 b93f 9d37 c73f 38ef c43f 9055 cc3f
00000040: 3b3d 4f3f def9 843f b767 ff3f 5b96 cd3f
00000050: 837f 1c3f b49b 4f3f c03c a93f d6d1 863f
00000060: f362 fc3f e8ac 7b3f af42 1640 9771 df3f
00000070: 0849 823f 3300 eb3f 290a 3140 8474 8f3f
00000080: c7c7 7a3f 7ea3 4c3f 5068 b03f 60f4 1d3f
00000090: 1f74 433f 61ba a93f 1920 623f 5e86 233f
000000a0: a639 3f3f 91a8 8b3f 0799 493f de19 0b40
000000b0: c6f6 cd3f 4eb0 ed3e 8fb5 eb3e 1bf5 803f
000000c0: 623b d93f 25b4 143f 10b9 413f 0fb6 123f
000000d0: 1c59 0840 581f 613f d6bf ca3e 00fe b43f
000000e0: 09b1 a93f 0d56 a13f 7a02 143f 1be9 2a40
000000f0: 34b3 b03f b544 823f 22f1 803f 3930 bf3f

sequential/batch_normalization_3/FusedBatchNormV3 f4 [64]
-0.6379664 -0.61700505 -0.77084017 -0.5151653 -0.720864 -0.37451935 -0.34367436 -0.37554514
-0.2854123 -0.55854976 -0.9687955 -0.3713608 -0.64721316 -0.6504107 -0.40409884 -0.34886566
-0.67293286 -0.44492298 -0.3975911 -0.3636406 -0.42781645 -0.44740698 -0.7239553 -0.51546085
-0.6347108 -0.62218344 -0.8069087 -0.26393387 -0.66246045 -0.466505 -0.28792182 -0.6155358
-0.6463104 -0.63131046 -0.8731544 -0.70469713 -0.4240487 -0.50388026 -0.36146536 -1.0276504
-0.49668214 -0.6289045 -0.6335167 -0.4235786 -0.50390214 -0.5017506 -0.6580503 -0.53896606
-0.71877724 -0.65033156 -0.62331766 -0.6874089 -0.90088403 -0.40767372 -0.3688455 -0.787381
-0.4695874 -0.60781753 -0.53450894 -0.6020147 -0.5886318 -0.5430002 -0.6024446 -0.63707894
00000000: c451 23bf 0bf4 1dbf c855 45bf e0e1 03bf
00000010: 8b8a 38bf 00c1 bfbe 16f6 afbe 7447 c0be
00000020: 9021 92be 1efd 0ebf fb02 78bf 0123 bebe
00000030: c3af 25bf 5181 26bf 0be6 cebe 859e b2be
00000040: 5445 2cbf f2cc e3be 1091 cbbe 1a2f babe
00000050: c20a dbbe 8712 e5be 2255 39bf 3ef5 03bf
00000060: 687c 22bf 6a47 1fbf 9291 4ebf 5722 87be
00000070: 0297 29bf bed9 eebe 7d6a 93be c193 1dbf
00000080: 9974 25bf 909d 21bf 0c87 5fbf 0867 34bf
00000090: e91c d9be 4cfe 00bf fd11 b9be 0c8a 83bf
000000a0: 1f4d febe e3ff 20bf 272e 22bf 4bdf d8be
000000b0: bbff 00bf ba72 00bf fc75 28bf aef9 09bf
000000c0: c901 38bf 217c 26bf bf91 1fbf 08fa 2fbf
000000d0: 56a0 66bf 9cba d0be 51d9 bcbe cd91 49bf
000000e0: c26d f0be ee99 1bbf 94d5 08bf a31d 1abf
000000f0: 93b0 16bf 1002 0bbf cf39 1abf 9b17 23bf

sequential/batch_normalization_3/FusedBatchNormV31 f4 [64]
0.38686618 0.90015924 0.55859166 0.98543245 0.61592555 0.94606805 0.7150451 0.6410796
0.8898018 0.6985215 0.45948026 0.94277954 0.48312607 0.4640104 0.85185707 0.99358344
0.65998447 0.6614217 1.1958153 0.88720345 0.72967285 0.601406 0.49010754 0.82588154
0.50114155 0.5922238 0.546815 0.6235716 0.59537065 0.7765068 0.7454683 0.67220163
0.501575 0.5941898 0.53659123 0.7551761 0.70769864 0.40860462 0.80730325 0.47269997
0.4892814 0.52976453 0.583989 0.9413407 0.6496734 0.5349626 0.53566056 0.63518685
0.56134194 0.54208803 0.4822135 0.6956572 0.4138879 0.63454217 0.8793952 0.6815208
0.4902976 0.5710112 0.659703 0.5429997 0.822219 0.7886206 0.5429478 0.55881625
00000000: 5313 c63e d670 663f ddff 0e3f 4d45 7c3f
00000010: 4cad 1d3f 8431 723f 320d 373f cb1d 243f
00000020: 0dca 633f 4ed2 323f ff40 eb3e 005a 713f
00000030: 4d5c f73e c592 ed3e 4e13 5a3f 7c5b 7e3f
00000040: bef4 283f ef52 293f 7a10 993f c41f 633f
00000050: d7cb 3a3f bef5 193f 60ef fa3e f96c 533f
00000060: d04a 003f fb9b 173f 11fc 0b3f 63a2 1f3f
00000070: 366a 183f 26c9 463f 03d7 3e3f 6815 2c3f
00000080: 3867 003f d31c 183f 0b5e 093f 3953 413f
00000090: bd2b 353f a034 d13e 6dab 4e3f bb05 f23e
000000a0: 1783 fa3e a69e 073f 4e80 153f b4fb 703f
000000b0: ff50 263f 4ff3 083f 0d21 093f 9b9b 223f
000000c0: 1bb4 0f3f 48c6 0a3f b0e4 f63e 9716 323f
000000d0: 1de9 d33e 5b71 223f 0b20 613f 2678 2e3f
000000e0: 4908 fb3e ca2d 123f 4ce2 283f 0702 0b3f
000000f0: f27c 523f 0ae3 493f a1fe 0a3f 950e 0f3f

sequential/batch_normalization_4/FusedBatchNormV3 f4 [64]
-0.3933925 -0.3824237 -0.7825607 -0.587829 -0.7349268 -1.0428443 -0.5700424 -0.9969394
-0.50804555 -0.5936552 -1.0903376 -0.36250797 -0.5959778 -0.8646518 -0.6193445 -0.6531731
-0.67472905 -0.759941 -0.62863904 -0.65083665 -0.7045714 -0.56552523 -0.44824088 -0.7535473
-0.89014316 -0.85173726 -0.6055395 -0.94677246 -0.7892792 -0.7553922 -0.81928587 -0.672741
-0.63587064 -0.77163786 -0.6602878 -0.7291872 -0.6473725 -0.72568613 -0.83474153 -0.6157778
-0.7803692 -0.7408551 -1.1062725 -0.65375584 -0.7183827 -0.975804 -0.84138584 -0.6451544
-0.6322438 -0.8362604 -0.36836505 -0.73904806 -0.6156404 -0.6394241 -0.83457386 -0.5547869
-0.7647815 -0.5806953 -0.91012377 -0.8721429 -0.69865775 -0.79290116 -0.8914541 -0.58076155
00000000: be6a c9be 0acd c3be e655 48bf f67b 16bf
00000010: 2a24 3cbf ec7b 85bf 4cee 11bf 6c37 7fbf
00000020: 460f 02bf caf9 17bf 2f90 8bbf a59a b9be
00000030: 0092 18bf d259 5dbf 5c8d 1ebf 5a36 27bf
00000040: 0bbb 2cbf 7e8b 42bf 7dee 20bf 3b9d 26bf
00000050: cb5e 34bf 43c6 10bf d47f e5be 7ae8 40bf
00000060: 6ce0 63bf 740b 5abf a304 1bbf ae5f 72bf
00000070: 340e 4abf 6261 41bf b8bc 51bf c138 2cbf
00000080: 6bc8 22bf 0f8a 45bf 9f08 29bf 03ac 3abf
00000090: 34ba 25bf 91c6 39bf 9fb1 55bf 9da3 1dbf
000000a0: 47c6 47bf aea8 3dbf 569a 8dbf 8b5c 27bf
000000b0: eee7 37bf 4ace 79bf 1065 57bf d728 25bf
000000c0: bbda 21bf 2915 56bf 589a bcbe 4132 3dbf
000000d0: 9c9a 1dbf 4cb1 23bf a2a6 55bf 8406 0ebf
000000e0: b8c8 43bf 72a8 14bf dffd 68bf c244 5fbf
000000f0: 3cdb 32bf 92fb 4abf 5636 64bf caac 14bf

sequential/batch_normalization_4/FusedBatchNormV31 f4 [64]
1.4886929 0.96948105 0.8353472 1.0246806 0.8742389 0.6020569 1.3788918 0.6272001
1.4157792 0.98308563 0.60019773 0.69890994 0.8234089 0.71455634 0.9898712 1.207263
1.2134898 0.98639977 0.95408046 1.0524267 0.7968194 1.2543635 1.6538002 0.6132902
0.5933035 0.8864835 0.8952575 0.7389934 0.98791933 1.040433 0.8560632 0.8473712
1.1123059 0.92207825 1.0983678 0.75520766 0.9262429 0.9666795 0.74482495 1.2495413
0.72785497 1.0207909 0.7481699 0.9230464 0.9834997 0.7445129 0.7627888 0.8755383
0.68911743 0.92118233 1.3905528 0.86081964 0.8106747 0.72107834 0.8454906 1.4015299
0.7844866 0.96638787 0.6769621 0.7981102 1.0846926 0.82569784 0.6639838 1.4034104
00000000: 7d8d be3f e92f 783f 50d9 553f bc28 833f
00000010: 1fce 5f3f 6720 1a3f 877f b03f 3090 203f
00000020: 4138 b53f 80ab 7b3f 8fa6 193f c3eb 323f
00000030: edca 523f 2aed 363f 3368 7d3f 9887 9a3f
00000040: a253 9b3f b284 7c3f 9e3e 743f ebb5 863f
00000050: 5bfc 4b3f fc8e a03f baaf d33f 9600 1d3f
00000060: bde2 173f 95f0 623f 982f 653f ac2e 3d3f
00000070: 48e8 7c3f e92c 853f f526 5b3f 52ed 583f
00000080: 0a60 8e3f 520d 6c3f 5197 8c3f 4a55 413f
00000090: 411e 6d3f 4f78 773f d9ac 3e3f f8f0 9f3f
000000a0: b454 3a3f 47a9 823f 1088 3f3f c54c 6c3f
000000b0: a3c6 7b3f 6698 3e3f 2046 433f 4723 603f
000000c0: 006a 303f 9bd2 6b3f a2fd b13f ad5e 5c3f
000000d0: 6188 4f3f 9798 383f 1272 583f 5565 b33f
000000e0: 1dd4 483f 3265 773f 634d 2d3f f350 4c3f
000000f0: 35d7 8a3f ef60 533f d8fa 293f f4a2 b33f

sequential/dense/MatMul f4 [128, 1024]
0.0026318212 -0.029211791 -0.096624024 0.08435758 -0.009297333 -0.020309404 0.03150439 -0.02095956
-0.06877184 -0.03472236 -0.058876194 -0.011827423 -0.026410291 -0.036294356 -0.07613665 -0.031593334
-0.05384686 -0.10598776 -0.0053534494 -0.10440404 -0.027899023 -0.059875425 0.026676282 -0.0651724
0.00044575726 -0.09516977 0.15076852 0.005627358 -0.030927993 -0.062467184 0.08992684 -0.03170543
0.04006518 0.06545384 0.0057330127 -0.0075852987 0.02516482 -0.0792254 -0.0966287 -0.01200677
-0.07168223 0.07284307 -0.047206577 0.06655478 0.0008749935 0.061522212 0.003238337 -0.03557863
-0.034497034 -0.03758377 0.051264703 0.113388 0.09472934 0.043905176 0.025719358 -0.037773255
0.06405237 0.02361729 -0.11928077 -0.025068277 0.012631531 -0.009959095 -0.018657144 -0.06277268
0.1100767 0.019786485 -0.024198271 -0.0048191035 0.04301005 0.011654973 0.061340556 0.087296754
-0.053977687 0.05430774 -0.0038606683 -0.06860369 0.0474282 0.0129785435 0.036531977 0.04698648
-0.00062609895 -0.08356859 0.0008740495 -0.0522136 -0.03141815 -0.041807443 -0.00017409219 0.05439139
-0.055305064 0.008132861 0.07157691 -0.011894422 -0.050436035 0.08736027 0.016846593 -0.0024519004
-0.017112322 -0.01892054 -0.034819994 -0.03806293 -0.009989624 -0.030554395 0.0046809125 0.09403976
-0.050731234 0.035842333 0.016262284 -0.032122914 -0.053872727 0.07579565 -0.03292698 -0.020471994
-0.0054338337 -0.08807097 0.062349178 0.02625834 -0.0036176778 -0.010899735 0.018744372 0.052205157
-0.016750978 0.024148809 -0.102645166 -0.06309889 -0.018670283 -0.023872664 0.04368579 0.010982796
-0.06641997 0.05619771 0.032887824 0.04078405 -0.029248256 -0.05239557 0.010358694 0.044642173
0.061894663 -0.0453852 0.032117024 -0.04705327 0.023527136 -0.040519413 0.059252188 -0.079839595
0.0044672927 -0.014301237 0.033422507 -0.13032474 -0.014341567 0.015946388 -0.064879864 0.023306808
0.017906593 -0.0677345 0.056965493 0.001144223 -0.028693024 0.022608725 0.03293511 -0.0060372637
-0.0642844 0.002236805 -0.0296603 -0.05562303 -0.047836192 0.058681592 -0.047618397 0.05491263
-0.025002712 -0.020454718 0.077804826 0.0860466 0.06098303 -0.06356829 0.0685136 0.03366968
-0.034041867 -0.106572784 0.09647211 0.016510459 0.018311827 0.0862065 0.01713095 0.07773017
0.0485601 -0.016215473 -0.077933766 0.073285855 0.08206692 0.051940884 -0.024568534 -0.034070224
-0.009722881 -0.008827066 0.054871563 -0.04292358 -0.03667423 -0.017206768 0.022985825 -0.03059069
-0.027649848 0.066093326 -0.017385025 -0.08920801 0.06411444 0.07668282 -0.1557698 -0.07626054
0.0041435887 -0.10497997 -0.10893283 0.028740544 -0.07646819 0.07913929 -0.049167387 -0.043324023
-0.027904214 0.08712913 0.027012585 -0.035768777 -0.008414002 -0.029358014 0.04474736 -0.06696455
-0.052108273 0.009928055 0.033826046 0.014107666 0.14243294 -0.06473898 0.013079072 -0.040599357
0.038837247 0.004588882 -0.0080088945 0.09516371 -0.09353842 -0.08398748 0.062024437 -0.044595454
-0.057307214 0.00598068 0.08091795 0.013512395 0.04712099 0.069898225 0.029829564 -0.040634498
0.14834233 -0.022973685 0.07363044 -0.06438217 -0.045451146 0.016569415 -0.01858131 0.0029747216
00000000: a27a 2c3b 914d efbc d1e2 c5bd abc3 ac3d
00000010: d753 18bc e85f a6bc bf0a 013d 62b3 abbc
00000020: 40d8 8cbd 0939 0ebd 2a28 71bd cfc7 41bc
00000030: 655a d8bc 64a9 14bd 88ed 9bbd 0368 01bd
00000040: 868e 5cbd 1c10 d9bd fd6b afbb c9d1 d5bd
00000050: 7e8c e4bc ef3f 75bd 3888 da3c 1b79 85bd
00000060: 87b4 e939 5ee8 c2bd 1063 1a3e b365 b83b
00000070: b45c fdbc 97dd 7fbd 902b b83d 8edd 01bd
00000080: 631b 243d aa0c 863d ffdb bb3b 198e f8bb
00000090: 7426 ce3c ed40 a2bd 45e5 c5bd 0bb8 44bc
000000a0: 22ce 92bd bf2e 953d af5b 41bd df4d 883d
000000b0: d25f 653a b7fe 7b3d 483a 543b e6ba 11bd
000000c0: c34c 0dbd 70f1 19bd f0fa 513d f837 e83d
000000d0: 7501 c23d ead5 333d 67b1 d23c 21b8 1abd
000000e0: e42d 833d 0c79 c13c 7a49 f4bd fd5b cdbc
000000f0: 7bf4 4e3c 792b 23bc ded6 98bc f68e 80bd
00000100: e56f e13d 4417 a23c 743b c6bc 92e9 9dbb
00000110: 4e2b 303d 80f4 3e3c 3c40 7b3d a4c8 b23d
00000120: b517 5dbd cb71 5e3d 4403 7dbb 1780 8cbd
00000130: 1244 423d f5a3 543c 8ea2 153d e574 403d
00000140: ca20 24ba 0226 abbd 7820 653a eedd 55bd
00000150: 51b0 00bd 483e 2bbd 848c 36b9 82c9 5e3d
00000160: 9087 62bd b13f 053c ea96 923d d2e0 42bc
00000170: 0496 4ebd f1e9 b23d de01 8a3c 10b0 20bb
00000180: 242f 8cbc 40ff 9abc 699f 0ebd e0e7 1bbd
00000190: 85ab 23bc 364d fabc 5762 993b eb97 c03d
000001a0: 8ecb 4fbd 69cf 123d 7b38 853c 5193 03bd
000001b0: a6a9 5cbd c03a 9b3d 71de 06bd e2b4 a7bc
000001c0: 4d0e b2bb 8d5e b4bd da61 7f3d bb1b d73c
000001d0: 9016 6dbb cd94 32bc cc8d 993c 13d5 553d
000001e0: 5939 89bc b9d3 c53c a137 d2bd fe39 81bd
000001f0: 6cf2 98bc 9b90 c3bc dfef 323d 2ff1 333c
00000200: 3107 88bd 922f 663d 62b5 063d 2d0d 273d
00000210: 0a9a efbc bd9c 56bd 83b7 293c b6da 363d
00000220: 4285 7d3d d5e5 39bd 248d 033d eeba 40bd
00000230: fbbb c03c aff7 25bd 6cb2 723d f182 a3bd
00000240: 5e62 923b bc4f 6abc 0ae6 083d d973 05be
00000250: e4f8 6abc 00a2 823c bcdf 84bd ebed be3c
00000260: d9b0 923c 63b8 8abd a654 693d c1f9 953a
00000270: a20d ebbc ef35 b93c f7e6 063d 3dd4 c5bb
00000280: 8aa7 83bd 5c97 123b 28fa f2bc f9d4 63bd
00000290: e2ef 43bd 1c5c 703d 820b 43bd 11ec 603d
000002a0: 7dd2 ccbc a790 a7bc 2358 9f3d 3339 b03d
000002b0: 57c9 793d 1730 82bd dc50 8c3d 38e9 093d
000002c0: 7c6f 0bbd d542 dabd 2b93 c53d f140 873c
000002d0: af02 963c 098d b03d 3556 8c3c ff30 9f3d
000002e0: f5e6 463d 50d6 84bc bd9b 9fbd e516 963d
000002f0: b412 a83d f7bf 543d f343 c9bc 388d 0bbd
00000300: b84c 1fbc 669f 10bc 01c1 603d a3d0 2fbd
00000310: b837 16bd 35f5 8cbc c54c bc3c 5499 fabc
00000320: ef81 e2bc f05b 873d 0a6b 8ebc b0b2 b6bd
00000330: 6e4e 833d e20b 9d3d 1e82 1fbe 7c2e 9cbd
00000340: f1c6 873b bdff d6bd 2d18 dfbd 4a71 eb3c
00000350: 5b9b 9cbd c813 a23d be63 49bd 8874 31bd
00000360: 6197 e4bc c270 b23d 7f49 dd3c 4882 12bd
00000370: e2da 09bc 3880 f0bc 0249 373d b624 89bd
00000380: 7c6f 55bd 48a9 223c 2e8d 0a3d d723 673c
00000390: f1d9 113e df95 84bd 9b49 563c 834b 26bd
000003a0: ce13 1f3d 555e 963b bd37 03bc 31e5 c23d
000003b0: 1291 bfbd a101 acbd 560d 7e3d b9a9 36bd
000003c0: f8ba 6abd 95f9 c33b 4fb8 a53d 1863 5d3c
000003d0: f001 413d cd26 8f3d 215d f43c 5c70 26bd
000003e0: 0de7 173e 4f33 bcbc 8ecb 963d cdda 83bd
000003f0: fb2a 3abd 95bc 873c d537 98bc 8cf3 423b

sequential/dense_1/MatMul f4 [34, 128]
-0.17906661 -0.03004837 -0.02801513 0.21552822 0.06671156 0.08717034 0.044168744 0.099429734
-0.09163358 -0.1186269 -0.14222035 0.042487476 -0.04109103 0.17776415 -0.1985886 -0.2429432
0.19581999 -0.09072625 -0.24307244 0.11466825 -0.057055574 -0.030296246 0.083299965 -0.096817955
0.106116496 -0.085996546 0.07679045 0.038067713 -0.09804208 -0.07711245 0.08132536 0.10836205
0.03306421 0.068350255 -0.12359309 -0.13454702 -0.09214242 -0.2131414 -0.17993073 0.018815525
0.097237445 -0.26026008 0.15540057 0.0050830874 -0.1736205 -0.04755526 0.10635217 0.05539614
-0.1868828 -0.0066980375 -0.18866128 -0.20047538 -0.07692734 0.02193883 -0.055685297 0.08325685
0.045772444 -0.15721191 0.12241248 0.2259964 -0.2859057 0.20162904 0.1248398 0.1555204
0.18790916 -0.049899448 0.048796464 -0.13534161 -0.03721184 0.100178584 -0.004060974 -0.23509824
0.18591085 -0.19939433 -0.18883558 -0.043194953 -0.11262971 -0.082414426 -0.042831767 0.08459799
-0.17142367 0.18580924 -0.036373198 -0.08168922 -0.0031317305 -0.025529308 0.17288423 -0.0867748
-0.008706452 0.11500772 -0.0699055 -0.16937897 -0.13339573 -0.008419016 0.07314028 -0.051123768
-0.049779307 -0.03450878 0.19490972 0.038775776 -0.038203027 0.008989635 -0.16315176 0.084167965
-0.05521824 0.034738183 0.065035835 0.13627248 0.14647675 -0.21973318 0.18834114 0.05738018
0.1131772 -0.107113376 0.0908263 0.16629806 -0.083252154 0.057460546 0.099686004 -0.049401894
0.19189951 0.1566042 -0.17861511 0.06471765 0.041981157 0.10152074 -0.11975125 -0.017042767
-0.100255065 0.20015404 0.12519702 0.043969054 -0.15117449 0.07864149 -0.064388916 0.20810708
0.06839421 -0.0007593871 -0.043749727 -0.047766946 -0.22666262 -0.01649308 -0.21164957 0.044728205
0.14997885 -0.021374393 -0.19777672 -0.08594722 -0.06792221 0.09829816 0.1340547 -0.23157938
0.18630561 -0.16170645 0.018217035 0.12842064 0.073285356 -0.0071723126 -0.14704409 -0.016980909
0.07345409 -0.21599568 0.09952663 0.22618973 -0.06712364 -0.1250732 0.13316222 0.032463368
0.11803663 -0.10842193 -0.15905805 -0.22213209 -0.0032316807 -0.09174226 -0.1853469 -0.28755322
-0.040286176 -0.057927925 0.017092837 -0.13844402 0.16634981 -0.13204023 0.15957384 -0.018725347
0.01887364 0.13225706 0.20595087 0.15486008 -0.13003927 0.031402078 -0.076669596 -0.2502324
0.1369455 -0.1957937 0.11476155 0.10545002 0.21981715 0.0035344465 -0.05222425 -0.17570506
0.1312419 -0.21886218 0.014048136 0.0971564 -0.16677414 -0.081254 -0.01201167 -0.12159745
0.018608397 0.07242175 0.0847913 0.04040422 -0.09309202 -0.023345882 0.21542837 -0.014746244
0.19521894 -0.20848544 -0.086862095 -0.2060017 -0.09041129 -0.037298504 0.091526456 -0.26653188
0.18955922 -0.12140761 -0.2412293 -0.097645566 -0.06614777 0.013361713 -0.11782102 -0.06506176
-0.10259889 -0.107651584 -0.043014057 -0.14977005 0.088449195 -0.044674117 -0.05551357 0.039378278
-0.17950584 -0.10183695 -0.040548697 -0.1091423 -0.21999438 0.09925883 0.1254005 -0.07694259
-0.14672701 -0.22848248 -0.0043700184 0.0019838077 -0.12812509 -0.012512768 0.08780298 0.0059084306
00000000: 3d5d 37be 0028 f6bc fc7f e5bc 6eb3 5c3e
00000010: 12a0 883d 5d86 b23d 49ea 343d d1a1 cb3d
00000020: 63aa bbbd a9f2 f2bd 36a2 11be 5907 2e3d
00000030: 114f 28bd ce07 363e cf5a 4bbe 1ac6 78be
00000040: 0985 483e afce b9bd fbe7 78be 30d7 ea3d
00000050: 1bb3 69bd d52f f8bc 2c99 aa3d 7e48 c6bd
00000060: 9b53 d93d f51e b0bd 5044 9d3d e4ec 1b3d
00000070: 49ca c8bd 22ed 9dbd e98d a63d ecec dd3d
00000080: 566e 073d 38fb 8b3d 601e fdbd b2c6 09be
00000090: 2ab5 bcbd bd41 5abe c33f 38be 0423 9a3c
000000a0: 6d24 c73d cf40 85be 5421 1f3e 0790 a63b
000000b0: 93c9 31be 4ec9 42bd 2bcf d93d 10e7 623d
000000c0: 345e 3fbe 367b dbbb 6c30 41be 6b49 4dbe
000000d0: 158c 9dbd 10b9 b33c 4416 64bd 9182 aa3d
000000e0: e37b 3b3d 29fc 20be 65b3 fa3d 9a6b 673e
000000f0: 3b62 92be d877 4e3e 02ac ff3d bd40 1f3e
00000100: 426b 403e 5d63 4cbd cdde 473d fe96 0abe
00000110: 716b 18bd 6e2a cd3d eb11 85bb 98bd 70be
00000120: 6a5f 3e3e 072e 4cbe 1d5e 41be 31ed 30bd
00000130: 68aa e6bd e5c8 a8bd 5d70 2fbd b641 ad3d
00000140: b089 2fbe c744 3e3e 10fc 14bd ae4c a7bd
00000150: b83d 4dbb d722 d1bc 9008 313e fdb6 b1bd
00000160: 82a5 0ebc 2b89 eb3d 9d2a 8fbd ae71 2dbe
00000170: e498 08be eaef 09bc 92ca 953d 2867 51bd
00000180: 63e5 4bbd 1459 0dbd 6a96 473e 59d3 1e3d
00000190: c77a 1cbd 4349 133c 4111 27be 4160 ac3d
000001a0: 852c 62bd a049 0e3d 8231 853d 038b 0b3e
000001b0: 00fe 153e bc01 61be 80dc 403e 7b07 6b3d
000001c0: 73c9 e73d 425e dbbd 2403 ba3d 0a4a 2a3e
000001d0: 1b80 aabd c05b 6b3d 2d28 cc3d a459 4abd
000001e0: 4e81 443e da5c 203e e1e6 36be b08a 843d
000001f0: 6ff4 2b3d 1bea cf3d 2540 f5bd 469d 8bbc
00000200: 8752 cdbd 2ef5 4c3e a633 003e e518 343d
00000210: 7ccd 1abe ca0e a13d 56de 83bd 061a 553e
00000220: 4312 8c3d 9b11 47ba ea32 33bd 46a7 43bd
00000230: 3f1a 68be 7f1c 87bc aaba 58be ec34 373d
00000240: 0e94 193e 5a19 afbc fb85 4abe 1905 b0bd
00000250: cd1a 8bbd 8c50 c93d a345 093e 2523 6dbe
00000260: e6c6 3e3e 6096 25be e43b 953c b380 033e
00000270: a216 963d b805 ebbb ba92 16be 8c1b 8bbc
00000280: 196f 963d f92d 5dbe 9ed4 cb3d 489e 673e
00000290: 1e78 89bd 3013 00be ad5b 083e 4ff8 043d
000002a0: 30bd f13d 510c debd 1de0 22be 9876 63be
000002b0: 9bca 53bb 5ee3 bbbd 94cb 3dbe 2d3a 93be
000002c0: 1e03 25bd d545 6dbd 4706 8c3c 45c4 0dbe
000002d0: 9b57 2a3e 8e35 07be 5367 233e e665 99bc
000002e0: e49c 9a3c 656e 073e c9e4 523e a493 1e3e
000002f0: 0429 05be 779f 003d f304 9dbd 761e 80be
00000300: 713b 0c3e 257e 48be 1b08 eb3d 2ef6 d73d
00000310: bf17 613e 2ca2 673b 18e9 55bd 07ec 33be
00000320: 4764 063e 681d 60be 272a 663c eff9 c63d
00000330: d7c6 2abe 7f68 a6bd 98cc 44bc 1508 f9bd
00000340: a370 983c db51 943d 10a7 ad3d e57e 253d
00000350: 07a7 bebd dd3f bfbc 4199 5c3e 3b9a 71bc
00000360: 79e7 473e 357d 55be c1e4 b1bd 1cf2 52be
00000370: 8e29 b9bd 51c6 18bd 3972 bb3d de76 88be
00000380: d01b 423e 8ea4 f8bd d004 77be 66fa c7bd
00000390: 7b78 87bd 16eb 5a3c 264c f1bd 1a3f 85bd
000003a0: 5e1f d2bd 6f78 dcbd 822f 30bd 525d 19be
000003b0: da24 b53d 35fc 36bd 3262 63bd 1e4b 213d
000003c0: 61d0 37be e48f d0bd 6416 26bd 0086 dfbd
000003d0: 3546 61be 3748 cb3d fd68 003e 1494 9dbd
000003e0: 9b3f 16be 50f7 69be 5f32 8fbb c502 023b
000003f0: 3933 03be 5a02 4dbc 0cd2 b33d 829b c13b

sequential/conv2d/Conv2D f4 [16, 3, 3, 3]
-0.034051154 0.20571695 0.035345476 0.056547698 -0.041908987 -0.031335548 -0.18807174 0.083439425
-0.123990655 0.10764682 0.1897475 -0.034908015 0.07348944 0.11156064 -0.07582856 -0.08996621
0.015135278 0.09684957 -0.106331624 0.12073368 -0.12722042 -0.18583833 0.15906134 0.09531993
-0.16903616 -0.14488903 -0.061955452 -0.1526618 0.076198235 0.019925604 0.11946811 0.01973344
-0.10002004 -0.09206861 0.12320193 -0.14554113 -0.033946324 0.16486943 -0.07575691 -0.16231923
-0.12253352 0.16010953 0.18693358 0.19070062 -0.072635785 0.1659278 0.0036423292 -0.052673455
0.13186122 -0.026357751 -0.11631965 -0.020633347 0.07793539 -0.06485093 -0.00078596233 -0.14554973
-0.1454718 0.027044075 0.05597824 0.07018647 0.1696393 0.05647694 -0.088713564 -0.01946943
-0.19068632 -0.0640218 -0.053873762 0.11968738 0.033082448 0.0650613 0.12640071 0.113819994
0.09239501 -0.2335645 0.0419225 -0.006060474 -0.015700936 0.0033911234 0.15948172 0.13255027
0.06926681 -0.03238466 -0.13432199 0.046008397 0.04828732 -0.019394264 0.010450456 -0.15125021
0.09335106 -0.11123329 -0.082534574 -0.19515306 -0.0065049627 -0.127024 -0.010034376 -0.0027453273
-0.006346457 -0.16858634 0.1823763 0.04309064 0.10156747 0.0113828555 -0.0460782 0.0004972673
0.18436842 -0.07847611 0.020713467 -0.05089325 -0.19391386 0.09845146 -0.073934354 -0.068939894
0.014100181 -0.09283504 -0.03783441 0.16956073 -0.14164728 0.07104268 -0.09173875 -0.17712535
-0.18827824 0.028802805 -0.16498616 0.10593407 -0.08936607 -0.045568384 0.13308203 0.08584652
0.014082805 0.1393844 0.14325678 -0.058984365 0.122178085 -0.0720749 0.08127607 0.0010809017
0.09070031 0.19967179 -0.17572781 0.15892012 -0.078897394 -0.22326237 -0.18006027 -0.16827261
-0.1268321 0.063400835 0.026227213 -0.109141715 0.13316162 -0.08186564 -0.054122802 0.027368832
0.121333234 -0.18004477 -0.07608399 -0.026551997 0.006737844 0.022343552 0.035984438 -0.029673167
-0.0055836225 -0.04747453 0.076208055 0.069979236 0.035906952 -0.017240176 -0.027879417 -0.113713495
-0.13729872 -0.028262747 -0.08766608 -0.13177171 -0.06523864 0.0030856477 0.113190025 -0.1358393
0.12491521 -0.18140832 -0.10742418 0.18271783 0.027111204 0.14983594 -0.06779715 -0.03865193
0.168065 0.12352098 -0.03738288 0.18138252 0.029728856 0.012166538 -0.23936062 -0.07442172
0.16830248 -0.100995414 -0.04567361 0.15130219 0.025136264 -0.124168694 -0.10550033 -0.16967197
0.098357745 -0.05480264 0.06908266 0.12992424 0.21198235 -0.048479013 -0.071346104 0.019970927
0.08137369 0.0683365 0.21117245 0.06294546 -0.043333083 0.0043142876 0.027763389 0.03880639
-0.039274614 -0.12670386 0.1712124 0.18150598 -0.079699494 -0.10203603 -0.10114811 0.0939377
0.1237272 -0.17295995 -0.13303314 -0.055252943 -0.21780415 -0.1796562 -0.21911184 -0.030040791
0.06362534 0.088171184 0.025119346 -0.13600264 -0.21414872 0.14042501 -0.07806294 -0.095297754
0.1498652 -0.20016216 -0.034649234 -0.15167655 0.0041920766 0.028371453 -0.002151823 0.11336688
0.12485919 0.07570083 -0.17865632 0.13901241 -0.16446987 0.17287855 0.0061317245 -0.18329675
00000000: 3979 0bbd 77a7 523e 6bc6 103d 8f9e 673d
00000010: c2a8 2bbd b459 00bd e195 40be 4ae2 aa3d
00000020: d0ee fdbd f075 dc3d 2b4d 423e b5fb 0ebd
00000030: a281 963d e879 e43d 014c 9bbd 3440 b8bd
00000040: f5f9 773c 1159 c63d 65c4 d9bd 3843 f73d
00000050: 1246 02be 674c 3ebe fae0 223e 1837 c33d
00000060: d117 2dbe ca5d 14be 00c5 7dbd 6053 1cbe
00000070: d20d 9c3d 053b a33c b2ab f43d 06a8 a13c
00000080: 4fd7 ccbd 788e bcbd 4b51 fc3d bc08 15be
00000090: 4d0b 0bbd 88d3 283e 7026 9bbd 0337 26be
000000a0: dbf2 fabd c1f3 233e 846b 3f3e 0647 433e
000000b0: 12c2 94bd fae8 293e 25b4 6e3b 1fc0 57bd
000000c0: a106 073e 36ec d7bc ff38 eebd 4407 a9bc
000000d0: 979c 9f3d 90d0 84bd 0a09 4eba fd0a 15be
000000e0: 8ff6 14be 898b dd3c 7049 653d edbd 8f3d
000000f0: edb5 2d3e 5d54 673d 75af b5bd 5b7e 9fbc
00000100: 4643 43be dd1d 83bd bcaa 5cbd a81e f53d
00000110: 7681 073d dc3e 853d 306f 013e 751a e93d
00000120: 9839 bd3d 882b 6fbe edb6 2b3d f196 c6bb
00000130: 409f 80bc 9c3d 5e3b 2d4f 233e 42bb 073e
00000140: c2db 8d3d c7a5 04bd b48b 09be 4d73 3c3d
00000150: edc8 453d b8e0 9ebc 6438 2b3c 56e1 1abe
00000160: d72e bf3d 47ce e3bd e307 a9bd 34d6 47be
00000170: 9527 d5bb 9412 02be 3967 24bc f3ea 33bb
00000180: f1f5 cfbb e6a1 2cbe dac0 3a3e d07f 303d
00000190: 9b02 d03d 287f 3a3c 7fbc 3cbd 0b5b 023a
000001a0: 13cb 3c3e 15b8 a0bd 4aaf a93c 7175 50bd
000001b0: 5b91 46be eba0 c93d e56a 97bd 5c30 8dbd
000001c0: 7204 673c 4c20 bebd 41f8 1abd 54a1 2d3e
000001d0: fc0b 11be d37e 913d 87e1 bbbd 5960 35be
000001e0: 03cc 40be dcf3 eb3c 22f2 28be f6f3 d83d
000001f0: 8f05 b7bd eaa5 3abd a846 083e 4dd0 af3d
00000200: 91bb 663c c9ba 0e3e e8b1 123e 9799 71bd
00000210: 8138 fa3d 019c 93bd 1174 a63d 0bad 8d3a
00000220: 16c1 b93d c376 4c3e fef1 33be f5bb 223e
00000230: f594 a1bd e49e 64be b861 38be a84f 2cbe
00000240: 46e0 01be 4cd8 813d 74da d63c b185 dfbd
00000250: 855b 083e 2ca9 a7bd dfaf 5dbd 9a34 e03c
00000260: 8f7d f83d a85d 38be ecd1 9bbd 9383 d9bc
00000270: 22c9 dc3b d309 b73c 6b64 133d 2415 f3bc
00000280: d2f6 b6bb a774 42bd f812 9c3d 4651 8f3d
00000290: 2b13 133d 453b 8dbc 6063 e4bc 9fe2 e8bd
000002a0: 0998 0cbe 4787 e7bc 468a b3bd 2aef 06be
000002b0: d69b 85bd 9438 4a3b 2cd0 e73d 7519 0bbe
000002c0: 8cd3 ff3d 1ac3 39be 3501 dcbd 621a 3b3e
000002d0: 5118 de3c 986e 193e 3bd9 8abd 7c51 1ebd
000002e0: 3b19 2c3e 91f8 fc3d ca1e 19bd 57bc 393e
000002f0: ee89 f33c 2956 473c f31a 75be 6a6a 98bd
00000300: 7c57 2c3e afd6 cebd 4014 3bbd f6ee 1a3e
00000310: 91ea cd3c 284c febd 8f10 d8bd 7dbe 2dbe
00000320: c96f c93d bc78 60bd 367b 8d3d dc0a 053e
00000330: e711 593e ee91 46bd e81d 92bd 129a a33c
00000340: 40a7 a63d 02f4 8b3d 973d 583e 8de9 803d
00000350: 087e 31bd de5e 8d3b 0c70 e33c 73f3 1e3d
00000360: 6bde 20bd a8be 01be 4e52 2f3e b4dc 393e
00000370: 7d39 a3bd 44f8 d0bd be26 cfbd 6962 c03d
00000380: b064 fd3d 6a1c 31be d739 08be e950 62bd
00000390: 0d08 5fbe cbf7 37be db5e 60be 1b18 f6bc
000003a0: 014e 823d 1893 b43d 16c7 cd3c 4744 0bbe
000003b0: cd49 5bbe 93cb 0f3e 76df 9fbd 782b c3bd
000003c0: 4376 193e 4ff7 4cbe 5bec 0dbd 1951 1bbe
000003d0: b05d 893b 406b e83c 9905 0dbb e52c e83d
000003e0: 2db6 ff3d 0909 9b3d aff1 36be 4559 0e3e
000003f0: ca6a 28be 1307 313e a2ec c83b 25b2 3bbe

sequential/conv2d_1/Conv2D f4 [32, 3, 3, 16]
0.057765443 -0.07449951 -0.14249668 0.07040811 0.108954564 -0.039165072 -0.21970567 -0.10665286
-0.03620105 -0.11282476 0.066414855 0.032907367 0.09115081 0.07036524 -0.11094423 -0.13019836
-0.023225714 -0.007986985 -0.1044871 -0.072048806 -0.048656043 -0.11523362 -0.18170595 0.091904975
-0.09824242 -0.03112821 0.030967617 -0.05874808 -0.031137554 0.00060176203 -0.0998287 0.056046493
0.052195113 -0.02684773 0.12154665 0.07741952 0.028759206 -0.018357309 -0.10645706 -0.05793882
0.0025322873 -0.09815042 -0.1087633 -0.043967824 -0.013496643 -0.018841885 0.081154995 -0.14864737
-0.0673542 -0.02895815 0.028447809 0.16097872 0.005686613 -0.015833989 0.049636737 -0.009188704
0.106169835 0.04676415 -0.07584052 0.01081328 0.022051182 -0.02293561 -0.07844284 -0.111305974
-0.06348779 -0.037386052 0.0352717 0.102936864 0.090597406 0.018168114 -0.09157624 -0.029817607
0.070761316 -0.008673411 0.03547973 0.016410694 0.010534506 -0.1517503 0.02897297 -0.009499686
0.065629564 -0.085913576 0.07771197 -0.054691155 -0.017422227 0.07627618 -0.13605423 -0.14392135
0.085212395 0.026307987 -0.019489342 0.046763003 0.0357652 0.09845165 -0.07923783 -0.07975695
-0.10082607 0.007939168 0.0058088745 0.121285215 -0.026365716 0.11035739 0.04377268 0.015614308
0.04155997 -0.103980236 0.0017205117 -0.1086935 -0.09733687 -0.12173205 -0.02206121 0.01249238
0.022267161 -0.039337683 0.0083548715 -0.026746923 0.15653594 -0.08290555 -0.117391035 0.07440119
0.08786871 -0.013758338 -0.058998793 -0.074925676 -0.050967343 -0.031573866 0.057662755 0.0012217151
-0.019997165 -0.08523366 -0.07648392 0.08021425 0.032639638 -0.06745517 -0.07484485 -0.09619903
0.069884434 -0.05703537 -0.06821867 -0.06540405 0.009217905 -0.029035501 -0.016394345 0.034757562
0.07956642 -0.02824471 -0.02955556 0.06482919 -0.12434178 0.08656259 0.12503591 -0.060395412
-0.015766134 -0.059941884 -0.1244633 -0.1093849 -0.012590305 -0.04102143 -0.08759283 0.08591897
-0.1091507 0.0028058235 -0.085539185 0.095339015 0.08529935 0.15586445 -0.08909253 -0.07068499
-0.12711506 0.13215008 0.09711975 -0.08188061 -0.07919536 0.08820394 0.06683863 0.0039443024
0.1220507 -0.12010595 -0.03398089 -0.017779117 0.027558623 0.0404395 -0.07096001 -0.0053855893
-0.034409102 0.06953495 0.04450271 -0.0116778435 -0.0803794 0.09932503 0.04825047 -0.07454348
0.023230989 0.093849525 -0.06230887 -0.014020198 0.06835809 0.08605957 0.12324438 -0.014209842
0.023046475 0.10739824 0.0978059 0.025705805 0.0012957344 -0.038984224 -0.061538506 -0.051725645
0.10385613 -0.034691997 -0.009130847 0.05216587 -0.12295113 0.040224306 0.07567763 0.08146001
-0.035459124 0.10956511 -0.06428749 0.08677735 0.04307687 0.066816054 0.069155045 -0.0041663055
0.12150866 -0.085271224 0.003085122 -0.07805665 -0.0809107 0.047766037 -0.021174978 0.03630543
-0.04483369 0.08686212 0.0480398 -0.059500583 0.024181021 -0.030202128 0.062129565 -0.0994128
0.09495238 -0.10280852 -0.040162686 -0.01937145 -0.0035248222 -0.050173674 0.079975426 0.041653745
-0.17365171 -0.019843217 -0.0986219 -0.122026175 -0.02106274 0.05578157 0.034307376 0.049609367
00000000: 759b 6c3d 3393 98bd a6ea 11be 2132 903d
00000010: 9223 df3d 8e6b 20bd 86fa 60be d16c dabd
00000020: 8d47 14bd ab10 e7bd 8304 883d e0c9 063d
00000030: 47ad ba3d a71b 903d ba36 e3bd b852 05be
00000040: da43 bebc d8db 02bc 55fd d5bd 538e 93bd
00000050: 8f4b 47bd 9bff ebbd 2011 3abe ad38 bc3d
00000060: 5233 c9bd 9600 ffbc cdaf fd3c d4a1 70bd
00000070: 2f14 ffbc 91bf 1d3a fd72 ccbd 0291 653d
00000080: 8bca 553d c5ef dbbc 73ed f83d 208e 9e3d
00000090: 6d98 eb3c 1162 96bc 2906 dabd 4251 6dbd
000000a0: bbf4 253b 1603 c9bd 4bbf debd 9b17 34bd
000000b0: 0621 5dbc 4c5a 9abc 9734 a63d 0437 18be
000000c0: 00f1 89bd a439 edbc 610b e93c 9bd7 243e
000000d0: c456 ba3b 48b6 81bc e44f 4b3d 388c 16bc
000000e0: 926f d93d c48b 3f3d 4652 9bbd 2f2a 313c
000000f0: aea4 b43c 76e3 bbbc a4a6 a0bd 63f4 e3bd
00000100: e305 82bd 1e22 19bd 0f79 103d 90d0 d23d
00000110: 228b b93d 4cd5 943c 538c bbbd 0e44 f4bc
00000120: 4feb 903d ec1a 0ebc 3253 113d b86f 863c
00000130: ec98 2c3c 6e64 1bbe b958 ed3c 92a4 1bbc
00000140: cb68 863d 75f3 afbd 7427 9f3d d503 60bd
00000150: 0fb9 8ebc b036 9c3d cd51 0bbe 1e60 13be
00000160: d683 ae3d d983 d73c 1da8 9fbc 908a 3f3d
00000170: 887e 123d 05a1 c93d 7247 a2bd 9d57 a3bd
00000180: e67d cebd 4913 023c 5f58 be3b 6264 f83d
00000190: eafc d7bc 0e03 e23d fb4a 333d 28d3 7f3c
000001a0: c93a 2a3d 97f3 d4bd cb82 e13a b39a debd
000001b0: 8e58 c7bd a74e f9bd b6b9 b4bc d7ac 4c3c
000001c0: 9f69 b63c 8d20 21bd dfe2 083c 5d1c dbbc
000001d0: f54a 203e 63ca a9bd b66a f0bd a75f 983d
000001e0: 83f4 b33d a76a 61bc b8a8 71bd a272 99bd
000001f0: 22c3 50bd 9953 01bd c82f 6c3d f521 a03a
00000200: 18d1 a3bc fc8e aebd 9aa3 9cbd 5e47 a43d
00000210: 24b1 053d f025 8abd 4248 99bd ff03 c5bd
00000220: 921f 8f3d ec9d 69bd 3bb6 8bbd 8ff2 85bd
00000230: b206 173c dcdb edbc 6f4d 86bc f25d 0e3d
00000240: b8f3 a23d 7361 e7bc 801e f2bc 2bc5 843d
00000250: e7a6 febd ba47 b13d 6a09 003e 2e61 77bd
00000260: fb27 81bc 9f85 75bd 9de6 febd 3105 e0bd
00000270: 9147 4ebc 1606 28bd df63 b3bd 49f6 af3d
00000280: 678a dfbd e8e1 373b 2b2f afbd 1a41 c33d
00000290: 6db1 ae3d ee9a 1f3e 2576 b6bd 4bc3 90bd
000002a0: 732a 02be 5a52 073e b8e6 c63d 05b1 a7bd
000002b0: 2d31 a2bd 44a4 b43d b1e2 883d 353f 813b
000002c0: b8f5 f93d 1cfa f5bd 8c2f 0bbd 83a5 91bc
000002d0: 9fc2 e13c e4a3 253d 7b53 91bd 9979 b0bb
000002e0: 8ff0 0cbd 5768 8e3d 7948 363d 6d54 3fbc
000002f0: f49d a4bd ec6a cb3d 49a2 453d 41aa 98bd
00000300: ea4e be3c 2e34 c03d 9637 7fbd f9b4 65bc
00000310: 54ff 8b3d 0040 b03d 8d67 fc3d 66d0 68bc
00000320: f6cb bc3c 9cf3 db3d 764e c83d fb94 d23c
00000330: a2d5 a93a ecad 1fbd cd0f 7cbd 45de 53bd
00000340: 86b2 d43d 3219 0ebd 8c99 15bc e1ab 553d
00000350: cdcd fbbd 3ec2 243d e0fc 9a3d 81d4 a63d
00000360: 963d 11bd ac63 e03d 29a9 83bd 53b8 b13d
00000370: 5f71 303d dbd6 883d 29a1 8d3d 8185 88bb
00000380: 88d9 f83d aea2 aebd c22f 4a3b 2adc 9fbd
00000390: 82b4 a5bd 52a6 433d 2677 adbc 01b5 143d
000003a0: 88a3 37bd c4e4 b13d 62c5 443d e2b6 73bd
000003b0: 4717 c63c 746a f7bc 927b 7e3d f098 cbbd
000003c0: 6576 c23d 468d d2bd a181 24bd e0b0 9ebc
000003d0: b400 67bb e982 4dbd 28ca a33d 1e9d 2a3d
000003e0: c1d1 31be 3e8e a2bc 47fa c9bd dce8 f9bd
000003f0: c48b acbc 377b 643d e485 0c3d 3133 4b3d
